notebooks/saved_model.pth (torch, 603110 bytes, 57 tensors)

ebd_model.token_ebd.weight f4 [24, 60]
000000 81 6d f0 3f df 72 c0 3f 4c 82 60 3f 8d a5 05 c0
       1.8783418 1.5035056 0.8769882 -2.0882294
000010 ff ef 23 3f 70 8b 9b bf e6 a9 5c bc 0f 8b c8 bf
       0.6403808 -1.2151928 -0.013468241 -1.5667437
000020 8b 08 33 bf 04 77 d5 3f 07 b8 b6 be 6d 61 aa bf
       -0.6993491 1.6676946 -0.35687277 -1.3310982
000030 b1 9e 2d bf 4b e1 19 bf bd 98 31 bf 81 24 3a 3f
       -0.6782027 -0.60109395 -0.69373685 0.7271195
000040 d0 f7 cf 3f 8f 5a 30 be f8 fd 04 bf d4 6b c4 3e
       1.6247501 -0.17222045 -0.51950026 0.38363516
000050 8b a3 2e bf 05 8b 83 3f 6e 90 43 3f e2 6b d9 3f
       -0.68218297 1.02768 0.7639226 1.6986048
000060 d8 dc a1 3f ab 45 9a 3f 17 c7 15 3f 22 3d a3 3f
       1.2645521 1.2052511 0.5850691 1.2753031
000070 de 95 51 be 13 a4 ef 3c 45 48 39 be 31 3a 60 3f
       -0.20467326 0.029253041 -0.18093975 0.87588793
000080 eb 45 aa bf 23 81 5c bf b1 7e 4b be b3 83 d8 3f
       -1.3302587 -0.86134547 -0.19872548 1.6915191
000090 05 23 8c 3e 1c 14 db be 4f f7 89 3e c8 71 49 bf
       0.27370468 -0.4278878 0.26946494 -0.7868924
0000a0 e8 95 bd bf 18 94 75 3f 8e 00 4a bf 32 08 1d bf
       -1.4811373 0.959291 -0.78907096 -0.6134063
0000b0 b4 c9 9b bf f0 dd 03 40 bc 0b 9d bf 08 f0 05 bf
       -1.217093 2.060421 -1.2269206 -0.52319384
0000c0 d3 93 75 bf 8c 16 1d bf b7 fc 51 3d 94 c0 08 3f
       -0.95928687 -0.6136253 0.0512664 0.5341885
0000d0 69 54 10 bf 08 74 90 3f d9 5c 40 bf b9 4e 45 bf
       -0.563788 1.128541 -0.75141674 -0.77073246
0000e0 73 16 b0 bf 46 65 24 3d 2f d2 50 bd 60 28 22 3f
       -1.3756851 0.040135644 -0.050981697 0.6334286
0000f0 d4 90 bd bd ad 6c e4 3f 18 ef 91 bf 6a 6d a9 3f
       -0.092561394 1.7845665 -1.1401091 1.3236516
000100 af 81 b3 3f 87 31 57 3f 2a c0 0b 40 c8 b3 02 3f
       1.4023951 0.8405995 2.1836038 0.51055574
000110 4b e6 a8 3e c7 48 49 be f7 73 86 bf f0 5b 9e 3f
       0.329882 -0.19656669 -1.050414 1.2371807
000120 80 df 3b be 0b f4 f8 3e d6 fe 9b 3d 95 c0 d5 3e
       -0.18346977 0.4862369 0.076169655 0.4174849
000130 59 ec 0a 3f 23 d1 18 bf e4 f6 09 c0 e6 92 3e bf
       0.5426689 -0.5969412 -2.155694 -0.744429
000140 ad de ff 3a 36 e1 9b be a6 d5 a2 bf 06 47 08 bf
       0.0019521319 -0.3044526 -1.272145 -0.53233373
000150 30 d5 01 3f 8e cd 01 3f b4 4c 92 3f 0f 25 62 3d
       0.50715923 0.50704277 1.1429658 0.055211123
000160 4e eb 34 3f c0 2d f4 be 5b 5f 81 bf 28 e4 19 3f
       0.70671546 -0.47691154 -1.0107225 0.60113764
000170 6e c5 d5 bf 8f 22 48 bf 2a 02 a6 3f 86 de ed 3e
       -1.6700876 -0.7817773 1.296941 0.46458834
000180 63 71 1b c0 67 41 f9 3e 66 ae 43 3f 7e ac 3f 3d
       -2.4287956 0.4868271 0.76437986 0.04679536
000190 fd 06 19 3f d5 ca 08 3f 34 10 86 3f c3 71 d0 be
       0.5977629 0.534345 1.0473695 -0.40711793
0001a0 2e 4e 3b be 3f 70 39 3f 8f 1f dc 3e ef bc 22 3e
       -0.18291542 0.724369 0.42992827 0.15892385
0001b0 70 ff 8b 3e df c6 9e 3f b7 b7 30 bc 7b 6b 97 be
       0.2734332 1.2404441 -0.0107859885 -0.2957419
0001c0 49 6b b4 bf 7e fc 10 be ba 24 0f bf fb 49 f3 3e
       -1.4095241 -0.14158818 -0.55915415 0.4751738
0001d0 6b d1 37 3f 33 f7 cb 3d b0 51 bf be 32 b3 06 3f
       0.7180392 0.09959259 -0.3736701 0.5261718
0001e0 b2 45 1c 3d 75 d4 81 3e 4b cd d7 3d 2b 21 37 3f
       0.038152404 0.25357404 0.105372034 0.71534985
0001f0 69 88 92 3f 1f 87 81 3e 4f da 42 3f e1 52 a7 3e
       1.1447879 0.25298402 0.7611436 0.3268042
000200 15 67 f0 3f c7 3d 71 3f 24 73 ac bf fe e7 8d bf
       1.8781458 0.9423489 -1.3472638 -1.1086423
000210 aa 4e 38 be 9b 62 ce 3f 58 0a 1d 3f f7 35 04 3f
       -0.17998758 1.6123842 0.6134391 0.51644844
000220 26 b2 8e 3f 18 71 5a 3d 18 6e e9 bf dc 4d 5f 3f
       1.1148117 0.05333051 -1.8236723 0.8722818
000230 a3 e1 ba be 81 22 8a 3f a7 c0 42 bf 0d c4 2d 3f
       -0.36500272 1.079178 -0.76075214 0.67877275
000240 68 be 70 bf 2a b1 82 3f 16 c3 c4 3f c4 5f b1 3f
       -0.94040537 1.0210316 1.5372036 1.385735
000250 94 c1 b8 3e 99 c2 25 be 42 b9 4d bf f0 45 80 3d
       0.36085188 -0.16187514 -0.80360806 0.062633395
000260 8e 55 a7 3e 2d 08 7d 3f 82 81 c6 be 35 cb c9 3f
       0.3268246 0.988406 -0.38770682 1.5765139
000270 a0 5b 1e c0 8d 79 b3 be c2 b8 9d bf 36 d7 4c 3f
       -2.4743423 -0.35053673 -1.2322009 0.80015886
000280 c4 72 ef bf 6d 75 6d 3e 11 dd a4 3d 8c 36 8f be
       -1.8706899 0.23189326 0.080499776 -0.27971303
000290 57 b1 72 3e 7a 9b 33 bf 62 70 4e 3e 4c 4e 82 bf
       0.23700462 -0.70159113 0.20160058 -1.0180144
0002a0 25 3e c3 bf d0 5c ab 3f e1 0b 9e 3f 18 2f 0a 3d
       -1.525334 1.3387699 1.2347375 0.03373632
0002b0 a3 10 c1 bf 48 2f 36 3f fb f5 34 3f 88 b1 fc 3f
       -1.5083202 0.71165895 0.70687836 1.9741678
0002c0 46 25 93 3b b7 86 28 3e f9 a5 50 bf 93 e3 3d be
       0.0044905273 0.1645764 -0.81503254 -0.18543844
0002d0 10 b1 6c bf 30 6f cf bf 38 ca 91 bf c0 ac eb be
       -0.92457676 -1.6205807 -1.1389837 -0.46030235
0002e0 d4 35 f3 be 34 48 bb bf 38 08 f3 bf d5 15 17 3e
       -0.47502005 -1.463141 -1.8986883 0.14754422
0002f0 89 3c 73 3f 1a 76 0c bf 79 30 1f 3f 13 bc 33 3f
       0.95014244 -0.5486771 0.6218334 0.70208853
000300 26 c6 e9 3f 66 58 5e bf ae 05 6e 3f 91 5b a6 be
       1.8263595 -0.86853635 0.92977417 -0.32491735
000310 21 65 92 bf 87 f9 90 3e 20 bf c9 3e a0 5e ac 3f
       -1.1437112 0.28315374 0.3940363 1.3466377
000320 f2 c2 0a 3f 5e 5d 01 40 a4 00 fc be 8b a4 69 bf
       0.5420371 2.0213237 -0.4921924 -0.912667
000330 f9 29 3f 3e 39 f9 85 3f 71 c0 9f 3f f6 8f f7 3e
       0.18668355 1.0466682 1.2480603 0.4835202
000340 86 79 44 bf 08 14 76 bf c8 b3 ec be 30 45 12 bf
       -0.7674793 -0.96124315 -0.46230912 -0.5713682
000350 b9 d4 0f 3e 0b eb ea 3e 81 37 12 be 1a fd 0f c0
       0.14045991 0.4588245 -0.14278986 -2.249823
000360 78 9c b9 be b7 94 84 3f d0 dc dc bf 0c 40 c1 3f
       -0.3625219 1.0357884 -1.7254887 1.509767
000370 1c 3f 8c 3e 06 f2 e5 be 37 52 82 3f 1a 73 d2 3f
       0.273919 -0.44911212 1.018134 1.6441376
000380 7e 3d 33 bd 40 84 d0 3f 24 3c 3b 3e 5a db 80 bf
       -0.043759815 1.629036 0.1828466 -1.0066941
000390 0f 69 0d bf a5 6e 61 3d 85 bd b7 3e 7b b4 fa 3f
       -0.5523843 0.05503716 0.3588678 1.9586328
0003a0 59 d0 f8 bd a7 1b 5d bf 12 1f 01 c0 6f fb 8f bf
       -0.12149114 -0.8637032 -2.0175214 -1.1248606
0003b0 40 45 52 3d 92 cf cc 3d 3b 11 27 3e 28 de d1 3e
       0.051335573 0.100005284 0.16315167 0.40989804
0003c0 a4 98 73 bf 72 76 a9 3e 15 7a 0e bf ea 9c 01 3f
       -0.95154786 0.3309818 -0.5565503 0.50630057
0003d0 cc 0e 56 bf 4f 54 e4 bb b4 e7 9b be b3 59 be 3f
       -0.8361633 -0.006968058 -0.30450213 1.4871124
0003e0 87 4a a1 3f 3e a8 2c bf cf 93 53 3f 27 85 fd 3e
       1.2600869 -0.6744422 0.82647413 0.4951565
0003f0 69 a5 18 3f 7e d6 00 3f 60 08 ef 3e 87 6d 4e 3e
       0.59627396 0.5032729 0.46686077 0.20158969

ebd_model.seg_ebd.weight f4 [2, 60]
000000 a2 7d 23 3f 87 4d df be 53 4b 80 bf 04 8d c1 3e
       0.63863575 -0.43613836 -1.0022987 0.378029
000010 7e 25 2f 3d 41 fb 15 3f a4 33 af bf f9 f4 8e 3f
       0.042760365 0.5858651 -1.3687634 1.116851
000020 29 c9 8d 3e 61 6d 87 3f eb db 52 bd 09 65 2f 3e
       0.27692536 1.0580255 -0.05147926 0.17128386
000030 35 bb 58 be 16 0d 37 be 89 8e 59 bf 7f 5f 95 3f
       -0.21165164 -0.17876086 -0.84983116 1.1669768
000040 e7 6a b2 be a2 ec 97 3d 76 f6 e0 3f 63 1d 20 bf
       -0.34847185 0.07418181 1.7575214 -0.6254484
000050 77 62 56 3e c6 a4 c0 3f db 3a 91 bf 26 10 36 bf
       0.20935999 1.5050285 -1.1346086 -0.7111839
000060 9a 88 ab 3f 07 65 c1 3f 95 67 99 bf f7 d8 c0 3e
       1.3401062 1.5108956 -1.1984736 0.3766553
000070 cf 93 80 be 8c 19 07 bf 69 37 f4 be f4 01 10 bf
       -0.2511277 -0.52773356 -0.47698525 -0.5625298
000080 84 33 87 bf 80 19 77 3e c9 23 3b 3e 39 e9 1f 3f
       -1.0562596 0.24130821 0.1827537 0.62465245
000090 1d 42 4b bf 00 c2 2c bf 02 7f c6 be 95 38 e6 3e
       -0.79397756 -0.6748352 -0.38768774 0.44965044
0000a0 c2 c6 be 3e 17 8b f4 bf 2b 8e 85 3e 32 79 b5 3f
       0.37261015 -1.9104947 0.26085028 1.4177611
0000b0 5e 7e 2c 3f ef b7 bb 3f ab ca 8d bf 92 8f 3e bf
       0.6738032 1.4665507 -1.1077474 -0.7443782
0000c0 3e 6b 82 3f be 75 ea bf a8 ad 8f 3e 57 e0 30 3f
       1.0188978 -1.8317182 0.28062177 0.69092315
0000d0 ea e7 37 3f 2d 6a 12 bf 9d ea ee be 6a 6a d0 3d
       0.7183825 -0.5719326 -0.4666337 0.10176547
0000e0 89 bb c2 3e da 3f fb bf 14 d4 47 bf ed 9e 09 be
       0.38033703 -1.9628861 -0.7805798 -0.13439532
0000f0 03 cd b8 be da 46 d6 3d b2 d8 a6 be 85 49 a3 3e
       -0.36093912 0.104627326 -0.325872 0.31892028
000100 15 d0 e0 bd 40 a0 c5 3d ba 21 bf bf 87 17 06 3f
       -0.109771885 0.09649706 -1.4932168 0.5237965
000110 22 c9 40 3f 6f 3f 63 be 10 f8 14 3f 72 ec f7 bf
       0.75306904 -0.22192167 0.58191013 -1.9369032
000120 08 48 c4 bf 03 f8 37 be 6c 64 28 bf a2 a9 9d bf
       -1.5334482 -0.17965703 -0.6577823 -1.2317393
000130 ff 89 9f bf 44 f4 bf bf 73 57 0a bf bf d8 9e 3f
       -1.2463988 -1.4996419 -0.54039687 1.2409896
000140 72 84 cf bf 11 52 67 bf 11 ca b2 3f f8 f5 6a 3f
       -1.6212294 -0.903596 1.3967916 0.9178157
000150 f1 14 03 3f 18 30 57 bf dd b2 85 bf 91 05 0e 3f
       0.5120383 -0.8405776 -1.044521 0.55477244
000160 7b 02 73 bf dc da 85 3f d3 9b 90 bf 50 3c 33 c0
       -0.9492566 1.0457416 -1.1297554 -2.8005562
000170 e6 cc a3 3f 4d 47 61 3e 8b 5a a6 3e 3c d5 a8 3f
       1.2796905 0.21999855 0.32490954 1.3190074
000180 9b 84 59 bf 41 de 32 bf 14 16 52 be 86 fa 47 bf
       -0.84967965 -0.6987038 -0.20516235 -0.78116643
000190 15 f1 2f 3f 56 99 48 3f 18 31 8e bf 14 ce 46 c0
       0.68727237 0.7835897 -1.1108732 -3.106328
0001a0 f8 3b b9 bf 4a 2d d9 bf 4c e9 0a c0 01 b8 b6 be
       -1.4471426 -1.6966946 -2.1704893 -0.3568726
0001b0 24 b7 24 bf 76 f9 8d 3e eb c2 5d bf 2b 47 af bf
       -0.6434195 0.27729386 -0.86625546 -1.3693594
0001c0 16 e6 cc 3d 53 7c 7e be 2d 9d 69 bf 2e 99 57 bf
       0.10004823 -0.24852113 -0.91255456 -0.8421811
0001d0 c5 e1 67 3f bd 71 63 3f cf f7 4a bf 88 c4 08 3f
       0.9057887 0.88845426 -0.79284376 0.5342488

ebd_model.pos_ebd.weight f4 [182, 60]
000000 48 35 53 bf 65 bc 08 3f 06 8d 90 bf a6 ac 74 bf
       -0.82503176 0.5341247 -1.1293037 -0.9557594
000010 f7 35 e4 be 3f 90 45 3f 1f 68 94 bd 4c 84 ce 3e
       -0.44572422 0.7717323 -0.07246422 0.4033531
000020 4f d1 56 bd fd 97 bd bf 84 06 43 be 33 32 95 be
       -0.052445706 -1.4812008 -0.19045454 -0.2913986
000030 9f 9d 26 bf b1 c6 35 bf b2 7c d9 3e 13 0a af bf
       -0.6508426 -0.71006304 0.42477947 -1.367495
000040 74 ee a6 3f e2 5c 0a ba 64 58 c1 3f 1e e9 1a bf
       1.304152 -0.0005278123 1.51051 -0.6051196
000050 32 7c 6a bf e0 b8 f9 3e 50 89 96 be 49 8b a9 bf
       -0.91595757 0.4877386 -0.29401636 -1.3245631
000060 fa 21 f4 3e a8 6f 20 bf 6b 13 e0 3e 5f c7 73 3e
       0.47682172 -0.62670374 0.43764815 0.23806523
000070 29 98 09 be d0 27 1e bf 36 b2 06 3f c5 33 d3 bf
       -0.1343695 -0.617795 0.5261568 -1.6500174
000080 50 6e 93 bf b3 06 d6 bf aa ef a3 3f 33 6e 9d bf
       -1.151804 -1.6720794 1.2807515 -1.2299255
000090 98 e6 fb 3e f9 da cc be e8 1b 06 3e 8c fa 25 be
       0.49199367 -0.40010813 0.13096583 -0.16208857
0000a0 75 b8 24 3f 39 bb 23 3f 5c c7 71 bd b0 90 75 3f
       0.6434396 0.63957554 -0.059028015 0.959239
0000b0 ca ba d0 3e e4 6c bb 3e 11 96 19 c0 bc 86 fa be
       0.4076751 0.36606514 -2.3997843 -0.4893092
0000c0 e9 b7 bd bf d0 66 31 bf 23 3a 86 3f cf dd 1c 3e
       -1.482175 -0.69297504 1.0486492 0.15318988
0000d0 02 85 bb 3f 5a 3f cb bf 86 82 35 3f 2b 3e ed be
       1.4649966 -1.5878708 0.7090229 -0.46336493
0000e0 58 62 d1 3f be d0 3e bf b5 9c a7 3f 6d b1 30 3e
       1.6358137 -0.74537265 1.3094698 0.17255183
0000f0 d1 18 fb 3d 35 a3 a5 be 2c 95 dc bf 83 2f d1 be
       0.12260593 -0.3235108 -1.7233024 -0.4085656
000100 f2 01 7e bf e5 e5 bc 3f af 78 1d bf b0 46 4e be
       -0.9922172 1.4757658 -0.61512274 -0.20144153
000110 b8 91 fa be 0a 45 f5 3d 7d 39 7b 3f e0 08 a4 3e
       -0.489393 0.11976059 0.98134595 0.3203802
000120 e5 60 02 bf cb a3 00 3f 9c 85 39 bb 24 58 aa 3f
       -0.509291 0.5024993 -0.0028308397 1.3308148
000130 3f 56 46 bf 46 ef 33 3f 30 86 00 c0 7a e4 c4 3e
       -0.7747535 0.7028698 -2.0081902 0.38455564
000140 86 0e cb 3f 3f 72 d2 be db 91 82 3f e4 5e 10 3f
       1.5863807 -0.41102788 1.0200762 0.5639479
000150 9d 13 81 bf 7f a3 41 bf 95 0e 17 3e 45 05 30 bf
       -1.008411 -0.756401 0.14751656 -0.6875804
000160 23 14 13 3f f4 6d 28 be ac c9 aa 3f 2b 30 2d bf
       0.574526 -0.16448194 1.3342795 -0.67651623
000170 b5 2d 30 bf b1 5b 23 3f c9 18 fb 3f b2 35 ae bf
       -0.68819743 0.63811785 1.9616939 -1.3610137
000180 f4 30 97 be ea ae d0 bf c4 ef 9e 3f 39 26 ad 3f
       -0.29529536 -1.630338 1.2416921 1.352729
000190 07 d5 a7 bf 24 4b 49 bd 37 d9 ea 3f ce fc 6e bf
       -1.3111886 -0.049143925 1.8347539 -0.933545
0001a0 5f 1c eb 3e 7b 5f de 3e ef 2a b0 bf 39 1f a7 bf
       0.45920083 0.4343222 -1.3763102 -1.3056403
0001b0 e2 dd 3a bf 10 6c ad be 5c 82 ff 3e 21 48 90 3d
       -0.72994816 -0.33871508 0.49904144 0.070450075
0001c0 73 88 d0 be bc 3a ca be 41 99 f1 be 7e bd d3 be
       -0.40729102 -0.39497936 -0.47187236 -0.4135551
0001d0 1e e1 54 3f 87 37 27 bf 47 60 43 3f f4 be 27 3d
       0.83156 -0.65319103 0.7631878 0.04095359
0001e0 c3 b1 04 be 61 7f bf bf 27 ca 32 3e 01 f2 21 3f
       -0.12958436 -1.4960748 0.17459927 0.63259894
0001f0 02 61 e7 3f ff e7 32 c0 55 60 04 be ba 2b 30 3f
       1.807648 -2.79541 -0.12927373 0.6881672
000200 1c 69 7e bf de 30 f7 be 8e 9d 99 3f b7 cd 2c 3f
       -0.99379134 -0.4827947 1.2001207 0.67501396
000210 92 6c 7e bf fd 14 c7 bf 64 07 65 3f 67 21 05 bf
       -0.99384415 -1.555328 0.894644 -0.5200409
000220 c6 2c ac 3f 6f f3 c5 bf 23 ba d6 bf f2 5f 83 3f
       1.3451164 -1.5464915 -1.6775554 1.0263655
000230 2c 24 45 bf 90 9f a4 3f f9 6a da bf 0a 15 43 40
       -0.7700832 1.2861195 -1.7063895 3.0481591
000240 8d 0a 83 bf 5a 37 7c 3e 24 9d 3a bd 84 80 f5 3e
       -1.0237595 0.2463049 -0.045560017 0.47949612
000250 8d 12 13 bd 74 7d a5 bf c1 0c e1 bf fe 85 18 bf
       -0.035906363 -1.292891 -1.7582017 -0.59579456
000260 db 89 20 bf 69 06 de 3f e8 a7 4d 3e a8 10 fd bd
       -0.6271035 1.7345706 0.20083582 -0.123566926
000270 e0 20 55 bf d0 81 a7 3f 1c ed 3b bf d9 82 99 be
       -0.8325329 1.3086491 -0.73408675 -0.2998264
000280 b2 9b 67 3f 20 9d cd 3e 6a 61 ef be f7 33 f9 3f
       0.9047195 0.4015894 -0.4675401 1.9468983
000290 58 28 9c bf a7 bb 90 bf c1 e2 46 3f 07 54 df 3f
       -1.2199812 -1.1307267 0.7768975 1.7447518
0002a0 10 50 6f bf 9c 19 52 bf 15 bc dc be 3f d4 44 be
       -0.9348154 -0.82070327 -0.43112245 -0.1922159
0002b0 8a 04 f9 3d 6b 7b 74 bf 34 5f 6e be 46 6e 22 be
       0.12159069 -0.9550082 -0.23278505 -0.15862378
0002c0 30 0e 03 3f 83 1e 22 3f ca f5 b8 3f 09 66 7a bf
       0.51193523 0.6332781 1.4450009 -0.97811943
0002d0 e3 59 0a 40 b1 aa ad be 60 12 8f bf 1d 24 05 40
       2.1617362 -0.3391929 -1.1177483 2.0803292
0002e0 53 d0 2a 3f 60 fa 1a 40 97 8a 81 3c 23 b9 10 3f
       0.6672413 2.4215317 0.015813155 0.56532496
0002f0 8f 10 41 3f 77 39 36 3f fb 6e bd bf 21 23 26 c0
       0.7541589 0.71181434 -1.4799494 -2.595894
000300 0e d8 ca bf d8 89 62 3f bf e1 0c bc 21 ea 0b 3f
       -1.5847185 0.8849158 -0.008598744 0.5465413
000310 9d 29 d1 3e fc c7 81 bf 6c 2f 26 40 6a 23 87 bf
       0.4085206 -1.0139155 2.5966444 -1.0557683
000320 52 d9 c6 3e 75 65 c2 3f 64 8a cf 3f e8 d2 bf 3e
       0.38837677 1.5187212 1.6214108 0.37465596
000330 e3 71 89 be 3f ca 08 3f 7b e7 85 3f 15 51 e6 be
       -0.268447 0.53433603 1.0461267 -0.44983736
000340 39 d4 8b 3f 49 b7 6b 3f 1b ca b3 bf 94 ef f1 bd
       1.092414 0.92076546 -1.4046053 -0.11813274
000350 25 ba 3d be a7 59 96 3e 94 e9 79 3f e4 8c 8a be
       -0.1852804 0.29365274 0.97622037 -0.27060616
000360 27 49 e7 3e 7e c3 f7 be 81 d8 cf 3e 05 ad d0 3f
       0.45172998 -0.48391336 0.40594867 1.6302801
000370 b0 49 71 3e 15 71 a2 3e 65 6b 4b bf 30 fd 09 3e
       0.23563266 0.317269 -0.79460746 0.1347549
000380 fd 49 11 3f 9e 58 06 3d f3 71 eb bf c7 35 36 3f
       0.5675352 0.032799356 -1.839415 0.7117581
000390 4f c2 56 be 62 8c 6a 3f 94 93 2f bf 7d af b4 3f
       -0.2097256 0.9162046 -0.6858456 1.4116055
0003a0 67 eb 01 bf 32 ba 13 3f ec e6 37 be d7 5f 4a 3f
       -0.5074982 0.57705986 -0.17959183 0.7905249
0003b0 8b fb 7e 3f c7 cc da be 15 65 4c 3c 2a 7d bb bd
       0.99602574 -0.42734358 0.012475272 -0.091547325
0003c0 2b 6c 33 3e 1c b2 bf be 69 6a b3 3e 50 67 01 40
       0.17521732 -0.37440574 0.35042122 2.0219307
0003d0 88 5c 16 be c1 17 9d 3f f7 01 6d bf 52 d9 9a bf
       -0.14683735 1.2272874 -0.92581123 -1.2097571
0003e0 07 27 73 bf 12 66 23 3f 70 f4 2e bf de a3 bf 3f
       -0.94981426 0.6382762 -0.6834173 1.4971883
0003f0 c4 1f ee 3e db c6 a7 bf 5b aa 98 bf 94 15 17 3f
       0.4650861 -1.3107561 -1.1926988 0.590173

ebd_model.norm.weight f4 [60]
000000 3d a3 81 3f e2 90 7b 3f 88 44 82 3f 1e ad 70 3f
       1.0127941 0.9826795 1.0177164 0.94014156
000010 d6 2d 81 3f 37 4f 84 3f 5d a0 7b 3f 30 ae 80 3f
       1.0092113 1.0336674 0.9829157 1.0053158
000020 8c c2 83 3f a6 0f 86 3f 2c 8d 77 3f 9f eb 80 3f
       1.0293746 1.0473526 0.96699786 1.0071906
000030 b0 21 84 3f 6f ba 80 3f d4 6d 84 3f 9e f2 87 3f
       1.0322781 1.0056895 1.0346017 1.0620916
000040 83 e3 82 3f 44 a3 84 3f 9b 3c 72 3f 81 08 80 3f
       1.0225681 1.0362325 0.94623727 1.0002595
000050 55 a5 81 3f 2c a0 83 3f 21 06 7e 3f 52 3f 82 3f
       1.012858 1.0283256 0.992281 1.0175574
000060 07 18 86 3f bc 9b 83 3f be 03 81 3f 48 e8 83 3f
       1.0476083 1.0281901 1.0079267 1.0305262
000070 b8 fa 81 3f e2 29 85 3f 90 8a 82 3f fe 1d 80 3f
       1.0154638 1.0403407 1.0198536 1.0009153
000080 7b fd 7a 3f 70 ac 83 3f f7 47 81 3f d1 72 83 3f
       0.9804303 1.0286999 1.0100087 1.0269414
000090 59 6f 6f 3f ab a1 7d 3f ca b8 81 3f 91 6f 88 3f
       0.9352928 0.9907481 1.0134518 1.0659047
0000a0 f8 f9 82 3f 8a 55 83 3f 4d b1 81 3f e0 93 85 3f
       1.0232534 1.026048 1.0132233 1.0435753
0000b0 67 b4 80 3f bf c4 81 3f e1 b8 88 3f 95 35 87 3f
       1.0055054 1.0138167 1.068142 1.0563227
0000c0 e5 20 87 3f d3 16 72 3f 41 50 7d 3f 0d 19 86 3f
       1.0556914 0.94566077 0.9895058 1.0476395
0000d0 69 21 7f 3f 3b c5 82 3f f8 d7 86 3f e5 43 83 3f
       0.99660355 1.021644 1.0534658 1.0255095
0000e0 3e 66 7c 3f c4 2b 84 3f 18 7c 7f 3f 57 76 85 3f
       0.9859351 1.0325856 0.9979873 1.042674

ebd_model.norm.bias f4 [60]
000000 6a 96 1c bc df aa c2 bc 3a ce 9c 3c dc f2 80 bc
       -0.009557346 -0.023763118 0.019141305 -0.015740804
000010 b6 28 02 bc 61 02 e5 bc a5 b5 ae bc 1c 2c d7 bc
       -0.007944277 -0.027955236 -0.02132685 -0.02626615
000020 63 cc 7c bb d6 6b d5 bb 3d de e1 3b 9a 5e 03 bb
       -0.0038573972 -0.006513099 0.006892948 -0.00200454
000030 40 24 50 3c 5d 9c d8 bc 52 7d e2 3c ea f0 24 3b
       0.012703955 -0.026441747 0.027647648 0.002516801
000040 a6 dc 40 3b a4 44 88 ba 88 0e da 3c 48 1d 3f 3c
       0.0029428392 -0.0010396433 0.026618257 0.011664696
000050 d1 40 f0 ba e5 75 a7 3c 7b d5 df 3c 18 dc e5 3c
       -0.0018329864 0.020441959 0.027323475 0.02805905
000060 2f 4e 07 bb 03 5f d8 bc d7 7e 08 bc e9 e4 60 bc
       -0.0020645966 -0.026412493 -0.008331022 -0.013726451
000070 35 be 93 bb 65 27 5d bb 86 ea 08 3c 3e 23 6a bb
       -0.0045087584 -0.0033745405 0.008356696 -0.0035726572
000080 bd 5f c9 3c d3 ae 05 3d 87 01 80 bc a1 8d 94 3a
       0.024581784 0.03263743 -0.015625728 0.0011333713
000090 7d b4 34 3d ff ca ae bb e9 b1 23 3c 22 14 ea bb
       0.04411744 -0.0053342576 0.009991148 -0.0071435133
0000a0 ab c8 b2 ba 8d fb ee bc e3 03 c4 3b 72 82 a1 3c
       -0.0013640126 -0.029172683 0.0059819086 0.019715521
0000b0 3d 29 8e bb 18 da bc bc 39 8c 0f bc c8 4d 85 b7
       -0.004338412 -0.023053214 -0.008761459 -1.5891055e-05
0000c0 21 05 97 3b 96 4b dd bc 91 01 c5 bb f4 75 4c 3c
       0.0046087657 -0.027013581 -0.0060121496 0.012479294
0000d0 15 d1 2e 3c cb 89 67 bc a0 16 c3 3b 7d d1 81 bb
       0.010669966 -0.0141319735 0.005953625 -0.0039617405
0000e0 41 96 b4 bc 98 09 57 3c 67 5c 9b bc bb ee 80 3c
       -0.022044303 0.013124846 -0.01896496 0.015738836

Encoder_Layer_model.attention.Q_linear.weight f4 [60, 60]
000000 60 51 ef 3c 7c 92 d6 3d 54 f1 ba 3d a0 0f 42 bd
       0.029213607 0.104771584 0.09128061 -0.047378182
000010 16 80 d8 bd 68 47 0b 3d b4 94 b4 bd d8 79 03 be
       -0.105713055 0.034003645 -0.08817425 -0.12839448
000020 f8 8e b5 3d ba 22 db bd d3 7b 02 3e e5 93 f3 bd
       0.0886516 -0.10699983 0.12742548 -0.11893443
000030 05 48 d7 bd 7a 02 98 3d 40 35 23 3c 4e 7a 66 bd
       -0.105117835 0.07422347 0.009961426 -0.056268983
000040 c4 b6 48 3d 16 c9 ab bd a2 ba 91 bd 49 a0 fe bd
       0.049002424 -0.083879635 -0.071156755 -0.12432916
000050 85 6e 87 bd 06 18 e3 bd 86 8e e2 3d ca e0 65 bd
       -0.06612877 -0.110885665 0.110623404 -0.05612258
000060 e0 6f b3 3c 64 ac 6d bd bc 4a f2 bc 0a 25 c1 3d
       0.021903932 -0.058025733 -0.029576652 0.09430893
000070 98 3c d7 3c 74 4f 7f 3d a8 c7 2c 3d da 7c d7 bd
       0.02627401 0.06233163 0.042182595 -0.105218604
000080 c6 c8 9e 3d 1e 38 d6 3d 28 08 1e 3d ae 9d d2 3d
       0.07753138 0.10459922 0.038581997 0.10283981
000090 a6 f4 7b bd 60 fc ac bd e4 5c d4 bd 28 39 a7 bc
       -0.06151261 -0.08446574 -0.1036928 -0.020412996
0000a0 30 2e 51 bc b9 47 96 bd 24 d7 34 bd d2 4a 2a bd
       -0.01276736 -0.07337899 -0.044150487 -0.04157526
0000b0 b2 fd fe 3d 88 0b 17 bc 42 58 d6 3d 30 c0 4b 3c
       0.12450732 -0.009219058 0.104660526 0.012435958
0000c0 58 6d 3c 3d 66 5c 98 3d 1e 5b f3 bd 18 5a 6e bd
       0.046002716 0.074394986 -0.118826136 -0.05819139
0000d0 3d f0 c8 bd fb 6c 00 3e 1c 0d 42 3d de a1 5d bd
       -0.09811447 0.12541573 0.047375783 -0.054109447
0000e0 90 62 c7 bd 32 6a 92 3d d0 7c f5 3c 25 13 82 bd
       -0.09735596 0.071491614 0.029966742 -0.06351308
0000f0 4e e2 bf bd 8c fb 89 bd b8 c4 00 3d 89 9b de bd
       -0.09369336 -0.06737432 0.031437606 -0.1086951
000100 e8 32 5f bc 04 ee 9c 3d c2 38 8d 3d 40 48 64 3c
       -0.013622977 0.076625854 0.06895591 0.013933241
000110 40 ba 60 3c 70 1b f7 3c 5c 85 4e 3d 42 ae d0 3d
       0.01371628 0.03016445 0.05042015 0.10189487
000120 b8 a2 0f 3d 28 59 91 3d 9e 4d b8 3d d5 18 cd bd
       0.03506729 0.07097083 0.08999179 -0.10014502
000130 85 1e 8d bd ee 29 91 3d 30 e3 d3 3c 20 9e 98 bd
       -0.06890587 0.070880756 0.025865167 -0.07452035
000140 28 42 1c 3d 6f 5c f0 bd 92 c0 44 bd 28 53 85 3d
       0.03814903 -0.1173638 -0.04803521 0.065100014
000150 80 ee 5e bb b3 ac b2 bd be b0 82 3d 30 fc 12 3c
       -0.0034016669 -0.08724346 0.06381367 0.008971259
000160 08 5a 97 bc a0 45 fe bd 76 be 3e bd 70 9d 69 3c
       -0.018475547 -0.12415624 -0.046568356 0.014258727
000170 28 ae 8f bd e8 fb b1 3c 71 d2 bb bd d6 04 cc 3d
       -0.070156395 0.021726564 -0.09170998 0.0996186
000180 4c 97 cb 3d 00 bb 9b 3d 58 47 7b bc 47 bd 03 be
       0.09940967 0.07604027 -0.015336834 -0.12865172
000190 16 7b 4e bd 48 5b 2b bc 9a ae f3 bd 62 28 d0 3d
       -0.050410353 -0.010458775 -0.11898537 0.101639524
0001a0 10 85 16 3d 3a 97 c8 3d 1a 8d ec bd 8e c0 87 bd
       0.036747992 0.09794469 -0.115503505 -0.06628524
0001b0 10 5a ee 3c 40 f0 00 bb a2 c4 99 bd 60 52 c1 3d
       0.02909568 -0.001967445 -0.07508208 0.0943954
0001c0 7c 11 5a 3d 30 b9 c9 bb e2 f7 fb 3d 31 ed 00 be
       0.05323933 -0.0061561093 0.12303139 -0.12590481
0001d0 30 28 f0 bd 98 eb d2 3c fe f1 ef 3d ea 77 95 3d
       -0.11726415 0.025747105 0.11716078 0.072982624
0001e0 08 7f 91 bd 90 af bd 3d e2 5f 89 3d 00 7a f0 3b
       -0.071043074 0.092620015 0.06707741 0.0073387623
0001f0 72 46 a7 3d 80 4b d1 3c 00 c8 31 39 22 6a 12 bd
       0.08167733 0.025548697 0.00016954541 -0.035745747
000200 f2 77 8c bd ee a9 a6 bd 64 06 8b bc c4 d0 b4 bd
       -0.06858815 -0.0813788 -0.01697082 -0.088288814
000210 e4 1e 60 3d 24 52 15 3d 8f e4 00 be 16 7b c2 bd
       0.05471696 0.03645529 -0.12587188 -0.09496133
000220 50 f2 bc 3d b3 9b 8a bd 00 86 ae ba 14 59 a9 bd
       0.09225905 -0.067679785 -0.0013315082 -0.082689434
000230 c0 4c e7 bc d2 65 82 3d 9c 67 06 3d 04 c6 81 3d
       -0.02823484 0.06367077 0.032813653 0.063365966
000240 f0 50 f6 bb c6 f3 d2 bd 00 f7 d4 ba 98 bf 9c 3d
       -0.0075169727 -0.10300402 -0.0016247928 0.07653731
000250 70 60 f7 3c c0 b8 da 3c 18 3d d0 3c f2 ee d8 3d
       0.030197352 0.026699424 0.025419757 0.1059245
000260 2a 61 85 3d 04 f9 ac bc c6 71 8f bd 58 25 d7 3d
       0.06512673 -0.021114834 -0.070041224 0.1050517
000270 72 8c 89 bd 2f bf b0 bd 5c 2e 25 3d 0d d6 a8 bd
       -0.06716241 -0.086302154 0.040327415 -0.08243952
000280 c2 23 e4 bd 6d 19 d6 bd d8 64 02 3d b5 25 a6 bd
       -0.11139633 -0.10454068 0.031834453 -0.08112661
000290 58 e4 e9 3d 90 c4 a9 bb 32 95 60 bd d6 1f a2 bd
       0.11420506 -0.005180903 -0.054829784 -0.079162285
0002a0 34 15 1e bd 54 a9 e6 3d 5b c5 a8 bd 97 cc f4 bd
       -0.03859444 0.112627655 -0.082407676 -0.11953085
0002b0 70 55 1d 3d 30 4f 33 3d 2f 03 e0 bd 2c 5c 6d bd
       0.038411558 0.04377669 -0.10938107 -0.05794923
0002c0 7e 2c e5 3d 0e f3 79 bd c4 dc 5d 3d 56 d5 7d bd
       0.11190127 -0.06102281 0.054165617 -0.06197103
0002d0 40 69 e9 bd a0 0d ff bd 0c ae c9 3d ac 1c 22 3d
       -0.11397028 -0.12453771 0.0984765 0.039578125
0002e0 f8 61 16 3d 64 00 36 3d 0c ca 4b 3d 68 8c ae 3d
       0.036714524 0.044433966 0.049753234 0.08522874
0002f0 ea d8 ca 3d 2e e2 cb 3d 74 eb 29 3d 90 df bc 3c
       0.09904654 0.0995525 0.04148431 0.023055822
000300 90 09 e3 3c d6 24 d6 bd 70 c5 6b 3d a8 67 02 3d
       0.02771452 -0.10456245 0.057561338 0.031837136
000310 20 da 65 3d c2 7b 02 bd 0e 9b db 3d 10 17 7e 3c
       0.056116223 -0.031856306 0.10722934 0.015508428
000320 98 ae fa bc 00 26 6f bb 1e 10 53 bd 28 64 9b bc
       -0.03060083 -0.0036491156 -0.051529042 -0.018968657
000330 0e 68 e0 3d 0c 67 2f 3d 58 66 6c bc 60 c1 9f 3b
       0.10957347 0.042822883 -0.0144286975 0.004875347
000340 f0 94 f1 3c af 95 98 bd b8 05 91 bd 80 22 e9 3d
       0.029489964 -0.07450425 -0.07081169 0.113835335
000350 00 6b 38 3a 60 61 1d 3d f8 57 73 bd 9e 58 c2 bd
       0.0007034987 0.038422942 -0.059410065 -0.09489559
000360 58 cc d1 3c be cd 8e 3d 1f 06 f9 bd 1e bf 02 be
       0.025610134 0.06972836 -0.12159371 -0.12768218
000370 34 5b 30 bd 06 fb aa 3d b7 3e ec bd e8 3a d3 3d
       -0.043055728 0.0834866 -0.115353994 0.1031397
000380 52 1b ef 3d 64 58 ed bc 80 1b 07 3c 20 b7 ae bb
       0.11675133 -0.028972812 0.008246303 -0.005331889
000390 87 cb 00 3e 00 0d 6b 3c 78 35 01 3d 76 ee 34 bd
       0.1257764 0.014346361 0.031545132 -0.044172727
0003a0 80 ac ce ba 0b 36 8c bd c0 ae d4 3b 8c c0 92 bc
       -0.0015767962 -0.068462454 0.0064905584 -0.01791408
0003b0 28 1d c5 3c 28 9c cd 3c f3 53 d8 bd d6 a3 b0 3d
       0.024061754 0.025098875 -0.10562887 0.08624999
0003c0 e4 6e 91 3d d8 3e ba 3d 16 b7 c2 3d b0 70 08 3d
       0.07101229 0.09094018 0.09507577 0.033310592
0003d0 cc 88 90 3d 56 52 82 3d 4e a4 9d 3d e2 37 9f bd
       0.07057342 0.063633606 0.07697354 -0.07774331
0003e0 bc 8a 7a 3d e8 78 29 bc 1c 89 4c 3d c4 60 42 3d
       0.061167464 -0.010343768 0.049935445 0.047455564
0003f0 5a 13 c5 bd b2 8d 70 bd 52 39 bc bd 1e 96 0c bd
       -0.09622832 -0.05872888 -0.091906205 -0.03432285

Encoder_Layer_model.attention.Q_linear.bias f4 [60]
000000 d6 99 d5 bd 1e db d2 3d d1 a3 f9 bd a0 c1 53 3c
       -0.104297325 0.102956995 -0.121894486 0.012924582
000010 50 20 f0 bd a0 80 d8 3d c8 31 75 bd 52 d6 a9 bd
       -0.11724913 0.10571408 -0.05986193 -0.082928315
000020 30 db 77 3d 78 c9 e2 bc fe 72 aa 3d 32 ca f6 3d
       0.060511768 -0.027683958 0.08322714 0.120502844
000030 e4 f4 bb 3d 10 b4 83 3c a8 ee 30 bc a8 6b bd bd
       0.091775686 0.016077071 -0.010799088 -0.092490494
000040 ca d2 9a bd 5a 4f 9d bd 00 50 a0 3d c0 dd af 3b
       -0.07559736 -0.07681151 0.07827759 0.005367011
000050 e8 76 af bd 9c db ed 3d 2c ec 26 bd 17 c9 01 3e
       -0.085676014 0.11614153 -0.040752575 0.12674366
000060 82 7d fb 3d f0 b7 b6 3c e6 bb d8 bd 08 46 2e 3d
       0.12279798 0.022304505 -0.10582714 0.042547256
000070 40 29 37 3b 78 08 82 bd e9 37 9e bd 16 32 b8 bd
       0.002794817 -0.063492715 -0.07725508 -0.08993928
000080 18 48 a3 3c 50 9a 5c 3d d0 5d b2 3c 2c fe 98 3d
       0.019931838 0.0538581 0.021773249 0.074703544
000090 14 10 41 bd aa b5 3e bd e9 6b 01 3e 2f 78 c8 bd
       -0.047134474 -0.046559967 0.1263882 -0.09788548
0000a0 9c 9d f3 bd 3f a5 00 3e 96 da a3 3d bc e5 b0 bc
       -0.11895296 0.12563036 0.08000676 -0.02159392
0000b0 8c ae 21 3d 16 68 26 bd 2c 84 92 bc 98 9d 92 3c
       0.0394731 -0.040626608 -0.01788529 0.017897412
0000c0 66 a9 35 bd 90 97 14 3c 98 a6 46 bd 63 d3 da bd
       -0.044351004 0.009069338 -0.04849872 -0.1068485
0000d0 34 88 76 3d 08 fc c1 bd cf 28 01 be 60 43 d1 3c
       0.060188487 -0.09471899 -0.12613223 0.025544822
0000e0 16 70 c1 3d c4 90 37 3d 6a 14 bb bd d8 3c 9f 3d
       0.09445207 0.044815794 -0.09134753 0.07775277

Encoder_Layer_model.attention.K_linear.weight f4 [60, 60]
000000 1c 1b 19 bd 80 aa 82 bc 50 68 9d 3d 58 ce 4f 3d
       -0.03737937 -0.015950441 0.07685912 0.050733894
000010 3e 6a 3a bd 7e a4 a0 3d 66 e8 0c bd 4a 38 0e bd
       -0.045511477 0.078438744 -0.03440132 -0.03472165
000020 7e 59 b6 3d 30 36 ef bc 80 2b 29 bb a0 59 f7 3d
       0.08903788 -0.029200643 -0.0025813282 0.120776415
000030 56 51 fe 3d 80 0f f9 3c 88 da c6 3d f8 2f 95 bc
       0.12417857 0.030402899 0.0970965 -0.01821135
000040 e6 54 73 bd 00 4d f7 3d 9e bf 8a 3d 74 c3 b4 3d
       -0.059407137 0.120752335 0.06774829 0.08826342
000050 31 02 80 bd 9c 65 8a 3d 48 6c d8 3d 90 58 4a 3c
       -0.06250418 0.06757662 0.10567528 0.0123502165
000060 8e 3a b0 3d b0 e6 ef bd 04 21 51 3d d6 98 02 bd
       0.086049184 -0.11713922 0.051056877 -0.031884037
000070 cc 3e f0 3d 00 df 3e 3d 17 e7 02 3e 16 d1 37 bd
       0.117307276 0.046599388 0.12783466 -0.044877134
000080 20 86 42 3c a0 34 bc 3d ce 35 bf bd a2 6f 38 bd
       0.011872798 0.09189725 -0.09336434 -0.045028336
000090 53 91 d3 bd 6c 80 c6 bd 0c 37 6a 3d 1a b4 1f bd
       -0.10330453 -0.09692463 0.057181403 -0.038990118
0000a0 68 e6 ac 3d f0 46 43 3c bc 39 3a 3d f0 34 61 3c
       0.08442384 0.011918768 0.045465216 0.013745531
0000b0 b6 c7 f7 bd 78 75 9f bc 68 32 91 bd 16 7a 51 bd
       -0.12098639 -0.019465193 -0.07089692 -0.05114182
0000c0 7a bd d4 3d 2f 97 cc bd 36 0d c1 bd ac 93 29 bd
       0.10387702 -0.099897735 -0.09426348 -0.041400596
0000d0 0a ad 6a bd a8 85 02 3d bc a6 a9 3d 98 f8 a5 3c
       -0.05729393 0.031865746 0.08283755 0.02026014
0000e0 80 00 15 3b c0 fd 7d 3d a2 e3 9d 3d 60 c1 94 3b
       0.0022735894 0.062009573 0.07709433 0.0045396537
0000f0 10 8a b2 bd d0 19 e5 bd 65 ec 03 3e 5c fc 2b 3d
       -0.087177396 -0.11186564 0.12883146 0.041988716
000100 d2 0e f2 3d 06 f5 4a bd 44 64 11 3d f2 3a 8b bd
       0.11819233 -0.04955008 0.03549601 -0.06798352
000110 60 31 8b bd a8 f8 71 bd 7d 1f 04 3e a6 c3 c0 3d
       -0.06796527 -0.059075028 0.12902637 0.09412317
000120 98 b5 a2 bd e6 83 ba bd 80 6b 2e 3d 20 61 f9 bc
       -0.079447925 -0.09107189 0.04258299 -0.03044182
000130 a0 4f ca 3b 98 07 87 3c 35 82 e7 bd d0 97 e9 3c
       0.006174043 0.016483113 -0.11304132 0.028514773
000140 00 dc 93 ba 48 0b b9 bd e6 bb 02 be 60 00 87 3d
       -0.0011280775 -0.09035355 -0.1276699 0.065918684
000150 e3 c4 f1 bd ea 36 6e bd c8 b4 a0 3d 66 2d b0 bd
       -0.11805131 -0.05815784 0.07846981 -0.08602409
000160 a0 6d 7a bd b0 98 a6 bd 32 a3 9b 3d 7c 99 23 3d
       -0.061139703 -0.081345916 0.075994864 0.039941296
000170 e0 4e 5a 3c 80 30 3a 3d dc 48 17 3d d4 72 df bc
       0.013324469 0.04545641 0.03693472 -0.027276434
000180 c0 f0 42 bc a7 7e a5 bd 06 61 78 bd 00 94 02 3b
       -0.01189822 -0.08080798 -0.060639404 0.001992464
000190 44 59 80 bc 10 1e 05 3d 68 fc 7a 3d 70 d1 ca 3d
       -0.015667565 0.032499373 0.06127587 0.09903228
0001a0 a2 58 fd 3d 28 c1 20 bc 14 81 50 3d 1e 23 d6 bd
       0.12370421 -0.009811677 0.05090435 -0.10455917
0001b0 b0 03 99 3d 6a 63 0d bd 9f cb d1 bd 02 dd cd bd
       0.074714065 -0.034518637 -0.10243916 -0.100519195
0001c0 7b 6d dc bd 4c 3d 74 bd e4 74 71 3d 90 a6 d7 bd
       -0.10763069 -0.05962877 0.058949366 -0.10529816
0001d0 68 a6 79 bc f8 5b a4 bc 18 83 42 3d 48 91 57 bd
       -0.015237428 -0.020063385 0.047488302 -0.052628785
0001e0 58 f2 85 3d 38 82 a3 bd 4e 5a 9b 3d 17 ba 03 be
       0.06540364 -0.07983822 0.075855836 -0.12863956
0001f0 4c 11 b4 bd 74 79 39 3d 00 4a a2 3c f2 32 b9 3d
       -0.087923616 0.045281842 0.019810677 0.0904292
000200 d8 b5 89 3d 8a 4f dc bd 62 f2 cf 3d 76 39 09 bd
       0.06724137 -0.10757358 0.10153653 -0.033502065
000210 74 bc c7 bc 06 1c 61 bd 3c 61 b7 bc 61 d8 f6 bd
       -0.024381854 -0.054958366 -0.022385232 -0.1205299
000220 d0 88 23 3c e2 38 c7 3d b4 60 d3 bc 6c 4d cb 3d
       0.009981349 0.097276464 -0.025802948 0.099268764
000230 80 f9 6e bd dc 98 55 3d 20 1e 51 3c 42 3b 4d bd
       -0.05834341 0.05214773 0.01276353 -0.05010534
000240 4f e0 00 3e 20 dc 2d 3c 20 5d bc 3b c8 7d 64 bc
       0.12585567 0.010611564 0.005748406 -0.013946004
000250 a0 30 e5 bb cc 24 d5 3d 68 f5 a0 bc 60 c6 9e 3d
       -0.006994322 0.10407409 -0.019648269 0.07752681
000260 7c c8 3f 3d a6 70 ac 3d a2 62 c8 bd bd ae e7 bd
       0.046822056 0.084199235 -0.09784438 -0.113126256
000270 b6 a0 2d bd 7e 9c 13 bd b6 ec fb 3d 1d 43 02 3e
       -0.042389594 -0.036037914 0.123010084 0.12720914
000280 3c 2c fc bc 2c 5e 7d bd 00 f8 0e ba 24 62 4a 3d
       -0.030782811 -0.061857387 -0.0005453825 0.04941
000290 b0 ba 34 3d b0 a1 c7 3c f4 2d c2 3d c0 d7 60 3c
       0.04412335 0.02436909 0.09481421 0.013723314
0002a0 a0 ef d5 3d 88 cf 00 3d 70 07 3c bc 98 1f dc 3d
       0.104460955 0.031447917 -0.011476383 0.107482135
0002b0 00 8b 89 3b 80 ce a8 3b d0 63 cc bc 52 4b 9b 3d
       0.0041974783 0.00515157 -0.024949938 0.075827256
0002c0 b6 cc 1c bd 30 44 ce 3d 86 28 8d 3d 00 af 07 bb
       -0.038281165 0.100715995 0.06892495 -0.0020703673
0002d0 34 61 ad bc dc 33 4f 3d 31 17 01 be 1c e6 2e bd
       -0.021164514 0.050586566 -0.12606503 -0.04269992
0002e0 20 ea 3a bd 74 8e 81 bc ae 0c 7d bd f2 65 64 bd
       -0.045633435 -0.015814997 -0.06177967 -0.055761285
0002f0 04 77 7b 3d 98 32 60 bc b4 3f b7 bd 70 cb 18 bc
       0.0613928 -0.0136839375 -0.08947697 -0.009325847
000300 3c bd 2a 3d 18 3c 56 bd 8c f3 e0 3d e5 88 b7 bd
       0.041684374 -0.052303404 0.10983953 -0.089616574
000310 d2 35 e6 3d c8 8a 4b 3d 1e f8 97 bd cf 4d fa bd
       0.11240734 0.0496929 -0.074203715 -0.12221872
000320 e8 45 4e 3d 88 32 c5 bc 94 ad 1c 3d 68 ca 61 3d
       0.050359637 -0.024071947 0.038251474 0.05512467
000330 32 40 b3 bd b0 9c 78 3c 10 68 e1 bc 06 11 ee bd
       -0.08752479 0.015174076 -0.027515441 -0.11624341
000340 a0 96 ba 3c 90 07 e2 3c 0b 42 ca bd fa af f8 3d
       0.022776902 0.027591497 -0.09875878 0.1214294
000350 58 a5 8a 3d 84 4f 96 3d 4c 61 e6 bd 65 73 e4 bd
       0.06769818 0.07339385 -0.11249027 -0.11154822
000360 a0 6c 64 3d 20 b0 98 3d a3 bf e2 bd 7e e5 fd 3d
       0.055767655 0.07455468 -0.11071708 0.12397288
000370 dc 0f e9 bc d9 58 d6 bd 9e f9 c1 bd a0 5d f5 bc
       -0.028449945 -0.10466165 -0.09471439 -0.02995187
000380 ca 24 8b 3d b8 59 b6 bd a6 cd c2 3d cb 1b 04 3e
       0.06794126 -0.08903831 0.095118806 0.12901227
000390 7a 8b f8 3d 8c b2 70 3d 74 03 58 bd 9e 05 49 bd
       0.12135978 0.058764026 -0.05273767 -0.049077623
0003a0 5e d7 bd 3d 54 de dc bc e0 d3 a1 3c ef 22 04 3e
       0.09269594 -0.026961483 0.01975435 0.12903951
0003b0 5d 69 03 be 68 80 f1 bc b4 0d 51 bd 20 31 ab bc
       -0.12833162 -0.029480174 -0.05103846 -0.020897448
0003c0 60 40 ae 3b 44 16 e5 bc 71 54 00 3e a4 72 56 3d
       0.0053177327 -0.027964719 0.12532212 0.052355424
0003d0 20 1e a6 bd b3 18 00 3e f4 c4 12 bd f0 49 98 3c
       -0.08111215 0.12509422 -0.03583236 0.018589944
0003e0 40 72 45 3c b6 55 c2 bd ea 83 86 3d 26 a1 a0 bd
       0.012051165 -0.09489004 0.06568129 -0.078432366
0003f0 8b 8d eb bd 58 ef dd 3d ec 50 9e 3d 1e 57 5d bd
       -0.115016066 0.10836667 0.077302784 -0.05403816

Encoder_Layer_model.attention.K_linear.bias f4 [60]
000000 df 5d af bd a0 0e b3 bc c6 b8 9b 3d b6 a3 a9 bd
       -0.08562826 -0.02185756 0.07603602 -0.082831785
000010 98 d8 cb bd c0 0d 7a bc 08 fa 87 3d 66 b2 b3 bd
       -0.09953421 -0.015262067 0.066394866 -0.08774261
000020 00 f3 87 3c ca 48 5e bd 18 f6 9a 3c 60 1b a1 3c
       0.016595364 -0.054268636 0.018916175 0.019666374
000030 02 fd b1 3d e1 9a 85 bd 5f 26 f3 bd 60 05 79 3c
       0.086908355 -0.065236814 -0.11872553 0.015199035
000040 38 b1 93 3d b2 2c 69 bd 2c 1b 2b 3d 76 fe f0 bd
       0.07211536 -0.05692739 0.04177396 -0.117672846
000050 e8 73 82 3d 54 de 88 3d 7b b6 f6 bd b4 ac f8 bc
       0.063697636 0.06683031 -0.12046524 -0.030355789
000060 c4 9a 64 3d bc a9 6e 3d 6c 1e 1d 3d 86 db be bd
       0.05581166 0.05826734 0.03835909 -0.093192145
000070 e8 26 dc 3d ba 1e e7 bd 40 4d 2c bb b6 c4 8c bd
       0.10749608 -0.112851575 -0.0026291162 -0.06873457
000080 e2 e8 d8 bd ee 04 68 bd e6 10 ec 3d 1c ec e5 bd
       -0.10591294 -0.056645326 0.115266606 -0.11226675
000090 a0 7c b4 3d 36 d5 ea 3d ee b0 94 bd 94 b9 20 3d
       0.08812833 0.11466448 -0.07260309 0.03923948
0000a0 d0 cc 4b bd b9 c1 f8 bd cf c9 e7 bd 34 25 b7 bc
       -0.04975587 -0.12146325 -0.11317789 -0.022356607
0000b0 74 7f be bd 74 ce 8a bc 78 84 98 3d ae 6b 80 3d
       -0.093016535 -0.016944148 0.074471414 0.06270538
0000c0 39 b2 02 be 94 d5 4d 3d 00 61 6a ba f4 69 35 3d
       -0.12763299 0.050252512 -0.0008940846 0.044290498
0000d0 ba 13 a9 3d 04 64 dc bd 1c 02 89 bd 98 9c 62 3d
       0.08255716 -0.10761264 -0.066898555 0.05532512
0000e0 38 7a af 3c 12 95 15 bd 14 54 85 bd 70 7a 9c 3c
       0.021420583 -0.036519118 -0.06510177 0.019101351

Encoder_Layer_model.attention.V_linear.weight f4 [60, 60]
000000 26 e1 0e bd fc aa 1a 3d 9a 96 69 bd 8d 7f 00 3e
       -0.034882687 0.03776072 -0.05702839 0.12548657
000010 a8 b6 84 3c d4 1a 0d bd 9b 2a da bd 67 b3 00 3e
       0.016200379 -0.034449413 -0.106526576 0.12568437
000020 c4 2d c6 bd 1c 5f e6 bd ac 33 4f 3d 96 5b 88 bd
       -0.09676698 -0.112486094 0.050586388 -0.06658094
000030 a2 ed c0 3d e8 92 d3 3c 88 d0 9a bd 2a 2c ea bd
       0.09420325 0.025826886 -0.075593054 -0.11434205
000040 c9 f4 ae bd 12 ef fe 3d 00 93 67 3b 6c 73 9a bd
       -0.08542783 0.12447943 0.0035335422 -0.07541546
000050 2c 9f e0 3d 90 05 39 3d a4 69 c5 3d b4 49 b5 3d
       0.109678596 0.04517132 0.0963929 0.088519484
000060 42 86 a8 3d c6 16 89 3d 4c 81 6e 3d 70 86 56 3d
       0.08228733 0.06693797 0.058228776 0.052374303
000070 10 0e 82 3d 54 af 1d bd 94 50 00 bd 66 31 64 bd
       0.063503385 -0.038497284 -0.031326845 -0.055711173
000080 94 7d 90 bd 22 b0 e0 3d 0e 2f 9e 3d 06 2f ca 3d
       -0.07055202 0.10971095 0.07723819 0.0987225
000090 4c 07 52 3d 20 90 b9 3d 34 7c a0 3d 38 4e 44 bc
       0.05127649 0.09060693 0.0783619 -0.011981539
0000a0 32 d6 f5 bd 28 0a 4d 3d fc 4e 24 bd 27 1e a9 bd
       -0.12003745 0.050058514 -0.040114388 -0.08257704
0000b0 30 6d c5 3d da 20 e8 3d 2c 6c 9e 3d 2c 68 2b bd
       0.096399665 0.11334391 0.07735476 -0.041847393
0000c0 10 e0 6a bd b8 98 df 3d 8a 8f 9d 3d b0 dd b7 bc
       -0.05734259 0.10917801 0.076933935 -0.022444576
0000d0 77 fa c9 bd 16 23 6b bd a4 cf 50 bd 58 3c 9f bd
       -0.098622255 -0.057406507 -0.05097927 -0.077751815
0000e0 54 26 e1 bd 68 e1 ef bc f6 89 d1 3d a0 91 b0 bc
       -0.10993639 -0.029282287 0.10231392 -0.021553814
0000f0 40 05 5b 3d c0 7e 0b 3b 79 8c e4 bd 2e 35 d3 3d
       0.053471804 0.0021285266 -0.111596055 0.103128776
000100 ce 2c e2 3d a0 fb e2 bc 54 40 3c 3d 1c 52 56 3d
       0.11043702 -0.027707875 0.045959786 0.0523244
000110 58 4f a8 bd 18 47 c9 3c 41 df 96 bd cc d0 82 3d
       -0.082182586 0.024570033 -0.07366801 0.06387481
000120 d0 a7 d0 bd e0 94 a3 3b 3c bf 2e bd 3b 7a e2 bd
       -0.10188258 0.0049921125 -0.042662844 -0.1105847
000130 90 41 48 3c c4 da 09 bd 80 79 12 bc e0 5a ee 3b
       0.012222663 -0.033655897 -0.008940101 0.0072740167
000140 f2 d0 d4 3d f2 cc ba bd dc eb 64 3d e4 ca 98 bd
       0.10391416 -0.091211215 0.055888996 -0.07460573
000150 cc e4 70 3d 70 aa 3d 3d 06 72 d9 3d 1e c0 63 bd
       0.058811948 0.04630512 0.10617451 -0.05560314
000160 e0 d8 53 3c ec 90 ef bc e0 56 d5 bd 81 f3 d1 bd
       0.012930125 -0.029243909 -0.10416961 -0.10251523
000170 96 aa f9 3d 00 45 89 3b f6 ca 9b 3d 50 53 ef bd
       0.1219074 0.0041891336 0.07607071 -0.116858125
000180 da ab d2 3d 50 5a 95 3d 36 cf 87 3d ee 97 ac 3d
       0.10286684 0.07292616 0.06631319 0.08427416
000190 bc c0 ae bd 80 78 ed 3b de 1e e6 bd 70 d9 2f bc
       -0.08532855 0.0072470307 -0.11236356 -0.0107329935
0001a0 ee bb d5 3d 60 32 87 3d 98 af 97 3d 68 a3 94 bd
       0.10436235 0.06601405 0.07406539 -0.0725773
0001b0 b1 60 ea bd 1e d6 0f bd 4e 09 c7 3d 4e c9 cd 3d
       -0.11444224 -0.035116307 0.097185716 0.100481614
0001c0 6b 86 01 3e 80 71 66 3d e0 f9 ee bb c9 e2 fb bd
       0.12648933 0.056260586 -0.007292971 -0.12299115
0001d0 c0 74 e5 bb ea 26 9c 3d a4 fe 3c 3d ca 62 24 bd
       -0.007002443 0.0762461 0.04614128 -0.040133275
0001e0 b7 19 85 bd 86 5f 95 3d c0 af d6 3b 50 39 0d 3c
       -0.06499045 0.0729361 0.0065517128 0.008619621
0001f0 3c a4 17 bd d0 b7 59 3d a2 e1 0a bd 7a 11 a1 3d
       -0.03702186 0.053153813 -0.033906586 0.078646615
000200 f0 32 d3 3c d2 18 1e bd 00 d4 4d bc 42 00 6f bd
       0.025781125 -0.03859789 -0.012562752 -0.058349855
000210 38 e3 c4 3d 4c 63 13 bd 90 5e db 3d e1 57 01 be
       0.09613651 -0.03598337 0.10711396 -0.1263118
000220 82 8b aa 3d 98 43 56 3d 4c 64 d7 3d 20 82 3e bd
       0.0832739 0.052310556 0.10517177 -0.046510816
000230 9c db b9 bd b8 b0 3d 3d 3d 6a cf bd fe 62 d5 3d
       -0.0907509 0.04631111 -0.10127685 0.10419272
000240 90 b3 68 3c f0 93 b8 3d 72 26 b9 3d 44 5e ec bc
       0.014202967 0.09012592 0.09040536 -0.028853543
000250 de 85 55 bd 2e 91 14 bd 92 a4 8c bd c8 ac 23 3d
       -0.05212962 -0.036271267 -0.06867327 0.0399597
000260 c8 81 dc 3c 72 0b aa bd 70 03 cd 3c c2 51 f5 3d
       0.026917353 -0.08302964 0.025026053 0.11978485
000270 b6 2b d4 3d b6 ad 8c 3d 10 8a 7d 3c 80 5b 7b 3d
       0.103599 0.0686907 0.015474811 0.061366558
000280 88 ae 8a 3d a2 81 5c bd ae fe 16 bd 40 31 b0 bb
       0.067715704 -0.053834565 -0.036863975 -0.005376965
000290 32 dc 87 3d c0 0c e7 bd 58 03 ba 3c 88 5d bc 3d
       0.06633796 -0.11281729 0.022706673 0.09197527
0002a0 08 ce 20 3d cc 55 c8 bd b4 27 91 bd 9d 20 ec bd
       0.039258987 -0.097819895 -0.07087651 -0.11529658
0002b0 ec f2 d5 bd db a8 d4 bd 90 15 28 bc 3a 2f 5a bd
       -0.10446724 -0.10383769 -0.010259047 -0.053267695
0002c0 3e 06 00 be c2 d9 ea 3d e0 aa fc 3c 7a 1b ae bd
       -0.12502381 0.11467315 0.030843198 -0.085013345
0002d0 d2 08 94 bd 00 d3 ff bb f8 99 ae 3d cc a9 28 bd
       -0.07228245 -0.0078071356 0.08525461 -0.041177556
0002e0 8c be 43 bd fc 3b a7 3d e0 1a 97 bc 36 31 3e bd
       -0.04778914 0.08165738 -0.018445432 -0.04643365
0002f0 52 1c b1 3d 80 87 d4 bd 58 46 0c 3d 57 e9 e5 bd
       0.0864798 -0.10377407 0.034246773 -0.11226147
000300 80 ed a3 3b f4 71 b8 bc ac bd b3 bd d6 7e 8c bd
       0.0050026774 -0.022515275 -0.087764114 -0.068601295
000310 8c 10 aa 3d 56 e0 d1 3d 48 cf dc 3c 5c bc 5d 3d
       0.08303937 0.10247867 0.026954308 0.05413471
000320 6e aa 94 3d bc bb b6 bc a0 64 e9 bb 44 d4 d6 3d
       0.072590694 -0.022306316 -0.007122591 0.10489705
000330 48 26 a2 3d 92 8c 48 bd f8 5c f1 3c e0 9f 20 3d
       0.07917458 -0.048962183 0.029463276 0.03921497
000340 96 1a 3b bd a2 04 a1 3d a6 53 52 bd 70 9c 58 3d
       -0.04567965 0.07862212 -0.051349305 0.052883565
000350 a8 0b 95 3d 68 ef 55 bc dc ce d0 bd 13 dc d9 bd
       0.07277614 -0.013057567 -0.10195705 -0.10637679
000360 b8 31 85 bc d8 5b 93 3d be e1 ed 3d d6 ea 9d 3d
       -0.01625906 0.07195252 0.116153225 0.07710807
000370 10 39 02 3c 50 4f 65 bc f0 e2 6b 3c ea 15 3d bd
       0.007948175 -0.01399596 0.014397368 -0.046163477
000380 10 47 d6 bc 4e a0 95 3d e6 c6 d7 bd d6 3f a7 bd
       -0.026156932 0.07305966 -0.10535984 -0.081664726
000390 16 d9 0c bd b7 ec a4 bd fa 2c c5 bd b8 f7 81 3d
       -0.034386717 -0.08052962 -0.09627719 0.06346077
0003a0 9c 1c 6e 3d 2e 42 8c 3d ba 8f ba bd 38 c7 22 3d
       0.058132753 0.0684856 -0.09109445 0.03974077
0003b0 c0 f9 8c 3d 98 25 d6 3c 00 0d 78 bd 1e bb 6c bd
       0.068835735 0.026140973 -0.060559273 -0.057795636
0003c0 e0 ea 90 3d 6c 18 2f 3d cc b8 07 3d 4e fc c9 bd
       0.07076049 0.0427479 0.03313522 -0.098625764
0003d0 46 c2 eb bd 1a 11 cf 3d e0 ae 03 3c 7c 2c df 3d
       -0.11511664 0.10110684 0.008037299 0.108971566
0003e0 18 7b fd bd 92 9b 77 bd 62 b4 f4 bd 84 8e f4 3d
       -0.12376994 -0.060451098 -0.11948468 0.11941245
0003f0 40 a3 9b 3c 54 fd 4e 3d 3c 2e ca 3d 80 d2 f8 3b
       0.018998742 0.05053456 0.098721 0.007593453

Encoder_Layer_model.attention.V_linear.bias f4 [60]
000000 50 23 65 bc 70 9a e6 bb 61 95 fb bd f6 5d 8c 3d
       -0.01398547 -0.0070374534 -0.12284351 0.06853859
000010 20 c3 55 3d e4 3f 06 3d 18 81 68 3d 91 84 e8 bd
       0.05218804 0.032775775 0.05676374 -0.1135341
000020 e5 5a 03 3e 92 d9 b0 3d 22 bf 1b bd f0 47 8b 3d
       0.12827642 0.08635248 -0.038024075 0.0680083
000030 8a 87 3c bd be eb 27 bd d0 98 00 bc be 48 a3 3d
       -0.046027698 -0.040996306 -0.007848933 0.07972859
000040 3c 4b 91 3d 80 78 36 bd 1a cb da bd 00 c2 c9 3a
       0.07094428 -0.04454851 -0.1068327 0.00153929
000050 ba 91 60 bd 48 e7 08 bc 02 4e 86 3d 6e 7e b0 3d
       -0.054826476 -0.008355923 0.065578476 0.086178645
000060 20 65 df 3b 50 ab 58 3d b8 f0 c1 3c 4a ac 70 bd
       0.006817475 0.05289775 0.023674354 -0.058758058
000070 7e 1e 9d 3d 5c 67 b9 bd 08 94 1f bc 0c ac 65 bd
       0.076718315 -0.09052917 -0.009739883 -0.05607228
000080 70 16 0f 3c de 5c db 3d a8 57 27 3d a8 f8 0a bc
       0.008733377 0.107110724 0.04085508 -0.008482136
000090 41 73 f6 bd 42 82 bc bd b8 6f db bc 80 1c 7e bd
       -0.12033702 -0.09204532 -0.02678667 -0.0620389
0000a0 d8 6c d0 3c 5b 5f 02 be da 1b f6 3d e0 90 20 bd
       0.025442526 -0.12731688 0.12017031 -0.039200664
0000b0 02 88 9d 3d 40 c5 bd 3d 7e 33 d8 3d 40 32 af bc
       0.07691957 0.09266138 0.10556696 -0.021386266
0000c0 00 9b 92 3b a6 f8 86 3d e8 03 c5 bd 00 53 16 bc
       0.004474044 0.06590395 -0.09619886 -0.009175062
0000d0 1c 6d 5e 3d c0 28 3f bb 40 33 bc bd c0 3b 9d 3c
       0.054303274 -0.0029168576 -0.09189463 0.01919353
0000e0 f8 3d d9 bc ba 2f a2 3d ff 3a b8 bd 00 be 30 3c
       -0.026518807 0.07919259 -0.089956276 0.010787487
