models/saved_model.pth (torch, 707686 bytes, 57 tensors)

ebd_model.token_ebd.weight f4 [24, 60]
0	0x3fead018	1.8344755
1	0x3fc9fa41	1.5779496
2	0x3f447f1b	0.7675645
3	0xbffe4ced	-1.9867226
4	0x3f222945	0.6334422
5	0xbfa197f7	-1.2624501
6	0x3ceb901a	0.028755236
7	0xbfcd45ad	-1.6036888
8	0xbf2ec2e9	-0.6826616
9	0x3fcb593b	1.5886606
10	0xbeeb791f	-0.45990846
11	0xbfac914b	-1.348184
12	0xbf0ec14c	-0.557637
13	0xbf0b6588	-0.544518
14	0xbf48bbde	-0.7841166
15	0x3f4c858f	0.79891294
16	0x3fcbba94	1.5916314
17	0xbcc7b280	-0.024377108
18	0xbf202d33	-0.6256897
19	0x3f02c067	0.5107483
20	0xbf1e8e86	-0.61936224
21	0x3f818289	1.0117961
22	0x3f44b64c	0.7684066
23	0x3fc917f0	1.571043
24	0x3f952a19	1.1653472
25	0x3f9476a4	1.1598706
26	0x3f13cdf0	0.5773611
27	0x3f95b5ca	1.1696103
28	0xbe2a8f74	-0.16656286
29	0xbd3af9dd	-0.045648444
30	0xbe9dbcb5	-0.30808035
31	0x3f391c2d	0.7230862
32	0xbfac89cb	-1.3479551
33	0xbf5fa356	-0.87358606
34	0xbdda584f	-0.10661375
35	0x3fe2e088	1.7724771
36	0x3ea64154	0.32471716
37	0xbed9c6b3	-0.42534408
38	0x3e8895b5	0.26676717
39	0xbf3da5e6	-0.74081266
40	0xbfce1651	-1.610056
41	0x3f7e33b0	0.9929762
42	0xbf434a79	-0.7628551
43	0xbf1374b7	-0.5759997
44	0xbf92dd84	-1.1473851
45	0x3ffe6761	1.9875299
46	0xbf977935	-1.1833864
47	0xbea6213b	-0.32447228
48	0xbf6b9c29	-0.92035156
49	0xbf1c6c81	-0.61103064
50	0x3e0256f7	0.12728487
51	0x3f01dd61	0.5072842
52	0xbecef437	-0.40420696
53	0x3f93a9ad	1.1536156
54	0xbf3fd81c	-0.7493913
55	0xbf5100b1	-0.8164168
56	0xbfa7e1f7	-1.3115834
57	0xbd0a03d1	-0.033695046
58	0xbe0031b4	-0.1251896
59	0x3f28ce33	0.65939635
60	0xbda82b0d	-0.08211336
61	0x3fe10d81	1.7582246
62	0xbf8fdfb0	-1.1240139
63	0x3fa7420b	1.306703
64	0x3fad2555	1.3527018
65	0x3f4afa40	0.792881
66	0x4007ea4c	2.1236753
67	0x3f06863b	0.5254857
68	0x3eb0d9dd	0.34541216
69	0xbe2f1f0d	-0.17101689
70	0xbf81a440	-1.012825
71	0x3fa26778	1.2687826
72	0xbe2f7451	-0.17134215
73	0x3eecf8a9	0.46283463
74	0x3d675ba9	0.0564839
75	0x3ed6fdae	0.41990417
76	0x3f08a33b	0.5337407
77	0xbf204124	-0.62599397
78	0xc0067031	-2.1005976
79	0xbf320590	-0.6953974
80	0xba96864e	-0.0011484118
81	0xbe9a634f	-0.3015389
82	0xbf9c21e4	-1.2197843
83	0xbefef89f	-0.49799058
84	0x3f0071b6	0.5017351
85	0x3ef2f2c1	0.47450832
86	0x3f892370	1.071394
87	0x3d214a97	0.039377775
88	0x3f284e0f	0.6574411
89	0xbee47b12	-0.44625145
90	0xbf797a72	-0.9745246
91	0x3f1f8ad7	0.6232123
92	0xbfd24a64	-1.6428952
93	0xbf3ce7ea	-0.7379137
94	0x3f9fb065	1.2475706
95	0x3ef33bc5	0.47506538
96	0xc0198c7d	-2.3991997
97	0x3f054e6f	0.52072805
98	0x3f3e9d42	0.74458706
99	0x3d006044	0.031341806
100	0x3f1f8c6e	0.62323654
101	0x3f01f169	0.5075899
102	0x3f84c54a	1.0372708
103	0xbed14504	-0.40872967
104	0xbe588112	-0.21142986
105	0x3f3d5207	0.7395329
106	0x3eeaa182	0.45826346
107	0x3e3a2aff	0.18180464
108	0x3e78bca5	0.24290712
109	0x3f95cc13	1.1702904
110	0xbd382caa	-0.04496447
111	0xbe9896cc	-0.2980255
112	0xbfb49e35	-1.4110781
113	0xbdacc219	-0.08435459
114	0xbf108721	-0.5645619
115	0x3ef5f282	0.4803658
116	0x3f3391a9	0.70144135
117	0x3df80ec8	0.12112194
118	0xbecb2ecb	-0.39684138
119	0x3f01543f	0.50519174
120	0xbc952dce	-0.018210318
121	0x3e678727	0.2261015
122	0x3e1385c2	0.14406493
123	0x3f41aa67	0.7565064
124	0x3f8e3725	1.1110579
125	0x3eb097e5	0.34490886
126	0x3f3bf3a1	0.73418623
127	0x3ed49cc0	0.4152584
128	0x3ff65446	1.9244468
129	0x3f819a2d	1.0125176
130	0xbfb8bb22	-1.4432108
131	0xbf90e54d	-1.1319977
132	0xbe185710	-0.14876962
133	0x3fd22c1d	1.6419712
134	0x3f28f7ad	0.66002923
135	0x3f0f035d	0.55864507
136	0x3f9147b0	1.1350002
137	0x3c9cb2d8	0.019128248
138	0xbfe553f7	-1.7916249
139	0x3f6cc424	0.92486787
140	0xbebd8fa7	-0.3702366
141	0x3f835cfb	1.026275
142	0xbf2d65db	-0.67733544
143	0x3f211dcc	0.6293609
144	0xbf7a8596	-0.97860086
145	0x3f742a6d	0.95377237
146	0x3fce4b78	1.6116781
147	0x3fb81bfc	1.438354
148	0x3e937ae8	0.28804708
149	0xbe5a5312	-0.21320751
150	0xbf3eb062	-0.7448789
151	0x3ddbb79f	0.10728382
152	0x3eae20e5	0.34009472
153	0x3f757e7a	0.9589611
154	0xbef3e67e	-0.4763679
155	0x3fcec922	1.6155131
156	0xc01e93b8	-2.477766
157	0xbedb6fad	-0.4285864
158	0xbf9a520b	-1.2056288
159	0x3f51e5df	0.8199138
160	0xbff3ec14	-1.905642
161	0x3e7fee1a	0.24993172
162	0x3cf3c89f	0.02975875
163	0xbeafab6c	-0.34310472
164	0x3e928a85	0.28621307
165	0xbf3aaacb	-0.7291686
166	0x3e342782	0.17593196
167	0xbf8c3d1d	-1.095615
168	0xbfca8d3f	-1.5824355
169	0x3fae51d1	1.3618718
170	0x3fa45108	1.2837229
171	0x3d3e7b75	0.046504457
172	0xbfc41f53	-1.5322059
173	0x3f3f2e26	0.7467979
174	0x3f42a71f	0.76036257
175	0x40014a3a	2.0201554
176	0x3d2cef6b	0.042220514
177	0x3de10666	0.109875485
178	0xbf4b5389	-0.7942434
179	0xbe56d0b2	-0.20978048
180	0xbf821a89	-1.0164348
181	0xbfc010d4	-1.5005136
182	0xbf81ed4a	-1.015054
183	0xbef29525	-0.47379413
184	0xbeb49b8e	-0.3527493
185	0xbfb3d420	-1.404911
186	0xbff24418	-1.892703
187	0xbcb4162c	-0.021983229
188	0x3f81ec6f	1.0150279
189	0xbf1849f2	-0.5948783
190	0x3f35ae19	0.70968777
191	0x3f56acaf	0.83857244
192	0x3fdd988f	1.7312182
193	0xbf583ad2	-0.8446475
194	0x3f5b9a56	0.8578237
195	0xbee05ac4	-0.4381925
196	0xbf82b6c9	-1.0212032
197	0x3e7f4aa7	0.24930821
198	0x3ea77af4	0.32710993
199	0x3fbbcc15	1.4671656
200	0x3ee4f4f7	0.44718143
201	0x3ff6cfbf	1.9282149
202	0xbef673fc	-0.48135364
203	0xbf413b49	-0.75481087
204	0x3e1a8869	0.15091099
205	0x3f73e33f	0.95268625
206	0x3fa64408	1.2989511
207	0x3ecf35f6	0.40470856
208	0xbf47159d	-0.77767354
209	0xbf803caa	-1.0018513
210	0xbf0ea521	-0.55720717
211	0xbf0bacee	-0.54560745
212	0x3e52de6f	0.20592664
213	0x3e964eed	0.2935709
214	0xbdf6a8b7	-0.120438986
215	0xc009af8d	-2.1513398
216	0xbeacb168	-0.337291
217	0x3f7d829c	0.9902742
218	0xbfddbb48	-1.7322779
219	0x3fcb21e6	1.586972
220	0x3e7d6801	0.24746706
221	0xbec530ac	-0.38513696
222	0x3f8813ac	1.0631003
223	0x3fcf1baf	1.6180323
224	0xbdfa6494	-0.12226215
225	0x3fc36a5b	1.5266832
226	0x3e956350	0.29177332
227	0xbf7e67c4	-0.99377084
228	0xbf183e3e	-0.59469974
229	0xbcce0121	-0.025147023
230	0x3e6ba113	0.23010664
231	0x3ff54f56	1.9164836
232	0xbe2e40f3	-0.17016964
233	0xbf66c749	-0.90147835
234	0xbfef97c5	-1.8718191
235	0xbf9083a7	-1.1290177
236	0x3e1763bf	0.14784144
237	0x3cf6c931	0.030125232
238	0x3dfa5f86	0.12225251
239	0x3ed33bcc	0.4125656
240	0xbf4ee374	-0.80815816
241	0x3eb46d39	0.3523958
242	0xbf21a5ae	-0.6314343
243	0x3efde98d	0.49592248
244	0xbf5545c5	-0.83309585
245	0xbd96e110	-0.07367146
246	0xbe9ab6e1	-0.3021765
247	0x3fbf4915	1.4944178
248	0x3f9b29b9	1.2122108
249	0xbf3738fd	-0.7157133
250	0x3f57aa3a	0.8424412
251	0x3f08e26d	0.534705
252	0x3f14c099	0.5810638
253	0x3eff461f	0.49858186
254	0x3ee7878a	0.45220596
255	0x3e7aa95f	0.24478672

ebd_model.seg_ebd.weight f4 [2, 60]
0	0x3f237da2	0.63863575
1	0xbedf4d87	-0.43613836
2	0xbf804b53	-1.0022987
3	0x3ec18d04	0.378029
4	0x3d2f257e	0.042760365
5	0x3f15fb41	0.5858651
6	0xbfaf33a4	-1.3687634
7	0x3f8ef4f9	1.116851
8	0x3e8dc929	0.27692536
9	0x3f876d61	1.0580255
10	0xbd52dbeb	-0.05147926
11	0x3e2f6509	0.17128386
12	0xbe58bb35	-0.21165164
13	0xbe370d16	-0.17876086
14	0xbf598e89	-0.84983116
15	0x3f955f7f	1.1669768
16	0xbeb26ae7	-0.34847185
17	0x3d97eca2	0.07418181
18	0x3fe0f676	1.7575214
19	0xbf201d63	-0.6254484
20	0x3e566277	0.20935999
21	0x3fc0a4c6	1.5050285
22	0xbf913adb	-1.1346086
23	0xbf361026	-0.7111839
24	0x3fab889a	1.3401062
25	0x3fc16507	1.5108956
26	0xbf996795	-1.1984736
27	0x3ec0d8f7	0.3766553
28	0xbe8093cf	-0.2511277
29	0xbf07198c	-0.52773356
30	0xbef43769	-0.47698525
31	0xbf1001f4	-0.5625298
32	0xbf873384	-1.0562596
33	0x3e771980	0.24130821
34	0x3e3b23c9	0.1827537
35	0x3f1fe939	0.62465245
36	0xbf4b421d	-0.79397756
37	0xbf2cc200	-0.6748352
38	0xbec67f02	-0.38768774
39	0x3ee63895	0.44965044
40	0x3ebec6c2	0.37261015
41	0xbff48b17	-1.9104947
42	0x3e858e2b	0.26085028
43	0x3fb57932	1.4177611
44	0x3f2c7e5e	0.6738032
45	0x3fbbb7ef	1.4665507
46	0xbf8dcaab	-1.1077474
47	0xbf3e8f92	-0.7443782
48	0x3f826b3e	1.0188978
49	0xbfea75be	-1.8317182
50	0x3e8fada8	0.28062177
51	0x3f30e057	0.69092315
52	0x3f37e7ea	0.7183825
53	0xbf126a2d	-0.5719326
54	0xbeeeea9d	-0.4666337
55	0x3dd06a6a	0.10176547
56	0x3ec2bb89	0.38033703
57	0xbffb3fda	-1.9628861
58	0xbf47d414	-0.7805798
59	0xbe099eed	-0.13439532
60	0xbeb8cd03	-0.36093912
61	0x3dd646da	0.104627326
62	0xbea6d8b2	-0.325872
63	0x3ea34985	0.31892028
64	0xbde0d015	-0.109771885
65	0x3dc5a040	0.09649706
66	0xbfbf21ba	-1.4932168
67	0x3f061787	0.5237965
68	0x3f40c922	0.75306904
69	0xbe633f6f	-0.22192167
70	0x3f14f810	0.58191013
71	0xbff7ec72	-1.9369032
72	0xbfc44808	-1.5334482
73	0xbe37f803	-0.17965703
74	0xbf28646c	-0.6577823
75	0xbf9da9a2	-1.2317393
76	0xbf9f89ff	-1.2463988
77	0xbfbff444	-1.4996419
78	0xbf0a5773	-0.54039687
79	0x3f9ed8bf	1.2409896
80	0xbfcf8472	-1.6212294
81	0xbf675211	-0.903596
82	0x3fb2ca11	1.3967916
83	0x3f6af5f8	0.9178157
84	0x3f0314f1	0.5120383
85	0xbf573018	-0.8405776
86	0xbf85b2dd	-1.044521
87	0x3f0e0591	0.55477244
88	0xbf73027b	-0.9492566
89	0x3f85dadc	1.0457416
90	0xbf909bd3	-1.1297554
91	0xc0333c50	-2.8005562
92	0x3fa3cce6	1.2796905
93	0x3e61474d	0.21999855
94	0x3ea65a8b	0.32490954
95	0x3fa8d53c	1.3190074
96	0xbf59849b	-0.84967965
97	0xbf32de41	-0.6987038
98	0xbe521614	-0.20516235
99	0xbf47fa86	-0.78116643
100	0x3f2ff115	0.68727237
101	0x3f489956	0.7835897
102	0xbf8e3118	-1.1108732
103	0xc046ce14	-3.106328
104	0xbfb93bf8	-1.4471426
105	0xbfd92d4a	-1.6966946
106	0xc00ae94c	-2.1704893
107	0xbeb6b801	-0.3568726
108	0xbf24b724	-0.6434195
109	0x3e8df976	0.27729386
110	0xbf5dc2eb	-0.86625546
111	0xbfaf472b	-1.3693594
112	0x3dcce616	0.10004823
113	0xbe7e7c53	-0.24852113
114	0xbf699d2d	-0.91255456
115	0xbf57992e	-0.8421811
116	0x3f67e1c5	0.9057887
117	0x3f6371bd	0.88845426
118	0xbf4af7cf	-0.79284376
119	0x3f08c488	0.5342488

ebd_model.pos_ebd.weight f4 [182, 60]
0	0xbf4ddb23	-0.804125
1	0x3f01783f	0.50574106
2	0xbf92be10	-1.1464252
3	0xbf8412e5	-1.0318266
4	0xbefbb984	-0.49164975
5	0x3f4956fb	0.78648347
6	0xbcaf38e9	-0.021389442
7	0x3ed80ac0	0.42195702
8	0xbd2d98bb	-0.042381983
9	0xbfbdc28d	-1.4824997
10	0xbe7cd89f	-0.2469201
11	0xbe88ec3d	-0.26742736
12	0xbf1a2292	-0.60209
13	0xbf386d11	-0.7204142
14	0x3ecdd4e4	0.40201485
15	0xbfaaf93a	-1.3357308
16	0x3fa7e3ff	1.3116454
17	0x3af4f632	0.0018689095
18	0x3fb8098a	1.4377911
19	0xbf1dd1b0	-0.6164808
20	0xbf655299	-0.8957916
21	0x3ef09818	0.46991038
22	0xbe781048	-0.24224961
23	0xbfa8466c	-1.3146491
24	0x3ee4813d	0.4462985
25	0xbf1b5be6	-0.606871
26	0x3ee94e6c	0.45567644
27	0x3e77f099	0.24212874
28	0xbe1d6c74	-0.15373403
29	0xbf1e0e2c	-0.61740375
30	0x3f060999	0.52358395
31	0xbfd47c94	-1.6600518
32	0xbf91485e	-1.135021
33	0xbfd42787	-1.6574563
34	0x3f9b58b7	1.2136449
35	0xbf964206	-1.1738899
36	0x3ef8ef2c	0.48619974
37	0xbed3168a	-0.41228133
38	0x3ddd58eb	0.108079754
39	0xbe271b08	-0.16318905
40	0x3f297fd1	0.6621066
41	0x3f2daf2f	0.67845434
42	0xbdaaad21	-0.08333803
43	0x3f7507e5	0.9571517
44	0x3ee835ee	0.45353645
45	0x3ed2955c	0.41129577
46	0xc019fa55	-2.405904
47	0xbf040040	-0.5156288
48	0xbfbb5bf3	-1.4637436
49	0xbf37e365	-0.7183135
50	0x3f7f20f5	0.99659663
51	0x3e449e74	0.1920107
52	0x3fc5b9c8	1.5447321
53	0xbfcd8e3d	-1.6059033
54	0x3f2dffcd	0.67968446
55	0xbef8d324	-0.48598588
56	0x3fd3bd51	1.654215
57	0xbf355cc4	-0.70844674
58	0x3fa5f71f	1.296604
59	0x3e1025ff	0.14076994
60	0x3e06ccd5	0.13164075
61	0xbece52cc	-0.40297544
62	0xbff29d38	-1.8954229
63	0xbec3d261	-0.38246444
64	0xbf947c60	-1.1600456
65	0x3fc302c1	1.5235215
66	0xbf166b33	-0.58757323
67	0xbddd87e1	-0.108169325
68	0xbf0f54f0	-0.5598898
69	0x3e982d76	0.29722184
70	0x3f846716	1.0343959
71	0x3e8b32c9	0.27187183
72	0xbee32e69	-0.44371346
73	0x3ea502b9	0.3222864
74	0xbe04f3d2	-0.12983635
75	0x3fb8a993	1.442675
76	0xbf5ae942	-0.85512173
77	0x3f072564	0.5279143
78	0xbff7bcf6	-1.9354541
79	0x3ed46a6e	0.4148745
80	0x3fe583b3	1.7930816
81	0xbe858108	-0.26075006
82	0x3f88c44e	1.0684907
83	0x3edd90d4	0.43274558
84	0xbf49692c	-0.78676105
85	0xbf1eb90b	-0.62001103
86	0x3e520c8e	0.20512602
87	0xbf597dfc	-0.8495786
88	0x3f420500	0.7578888
89	0xbe65584e	-0.22396967
90	0x3fc97f6d	1.5742012
91	0xbf1b809f	-0.60743135
92	0xbf3eb492	-0.7449428
93	0x3f0f8027	0.5605492
94	0x40008edd	2.0087197
95	0xbfc64905	-1.5491034
96	0xbe9209a2	-0.28522974
97	0xbfcbb36a	-1.5914128
98	0x3facc0b5	1.349631
99	0x3fa7abc5	1.3099295
100	0xbf87776e	-1.0583322
101	0xbe0effe8	-0.13964808
102	0x3fdf0aa4	1.7425122
103	0xbf826b57	-1.0189008
104	0x3ec6c1ba	0.38819677
105	0x3ea11bc5	0.314665
106	0xbf8d3aaf	-1.1033534
107	0xbfae370e	-1.3610551
108	0xbf11977e	-0.56871784
109	0xbebfe3a3	-0.3747836
110	0x3ea43468	0.32071233
111	0xbcccaef5	-0.02498577
112	0xbf03f5d4	-0.5154698
113	0xbed81fed	-0.42211857
114	0xbf2e5990	-0.6810541
115	0xbeb36b10	-0.3504262
116	0x3f859cbb	1.0438455
117	0xbf08e13d	-0.53468686
118	0x3f5383ad	0.82622796
119	0x3e4ce8dc	0.20010704
120	0xbe53d4ac	-0.20686597
121	0xbfbb2435	-1.4620425
122	0x3e484759	0.19558467
123	0x3f40ce44	0.75314736
124	0x3fe67e65	1.8007323
125	0xc022c795	-2.5434315
126	0xbe8af20a	-0.27137786
127	0x3f34b7f9	0.7059322
128	0xbf494766	-0.7862457
129	0xbf174728	-0.5909295
130	0x3f9c2485	1.2198645
131	0x3eed9e13	0.46409664
132	0xbf90e339	-1.1319343
133	0xbfa98702	-1.3244326
134	0x3f2c4572	0.67293465
135	0xbf303d56	-0.6884359
136	0x3f931928	1.1492052
137	0xbfca435d	-1.5801808
138	0xbffb420c	-1.9629531
139	0x3f4afc9e	0.79291713
140	0xbf6a54de	-0.9153575
141	0x3fba0b51	1.4534703
142	0xbfc9f47c	-1.5777736
143	0x40512c2e	3.2683215
144	0xbf958e02	-1.1683962
145	0x3ebfd521	0.37467292
146	0xbe633a6a	-0.22190252
147	0x3f027ab3	0.50968474
148	0xbcbd39f9	-0.023098933
149	0xbfb7d828	-1.4362841
150	0xbff0a330	-1.8799801
151	0xbebeee6b	-0.37291273
152	0xbef65752	-0.48113495
153	0x3fe74144	1.8066792
154	0x3ef9fb1d	0.48824397
155	0x3d524b15	0.051341135
156	0xbf1fa34e	-0.6235856
157	0x3fba46a7	1.4552811
158	0xbf823861	-1.0173455
159	0xbedc9ae3	-0.4308692
160	0x3f66655f	0.8999843
161	0x3eff49e1	0.49861053
162	0xbf109cd1	-0.5648928
163	0x3fdc7d73	1.7225784
164	0xbf89f81f	-1.0778846
165	0xbf976ab5	-1.1829439
166	0x3f2a1129	0.66432434
167	0x3feda7d4	1.8566842
168	0xbf4e25cc	-0.80526423
169	0xbf69e6c4	-0.91367745
170	0xbedf4e14	-0.43614256
171	0xbe59d50b	-0.21272676
172	0x3e58f253	0.2118619
173	0xbf95829d	-1.1680485
174	0x3d9a5826	0.07536344
175	0xbea87ddb	-0.3290852
176	0x3f2695da	0.65072405
177	0x3f016f6c	0.5056064
178	0x3fc74722	1.5568583
179	0xbf6c7c36	-0.9237703
180	0x400827e4	2.1274347
181	0xbf066327	-0.52495044
182	0xbf97d882	-1.1862948
183	0x40015bdd	2.021232
184	0x3f25a139	0.6469913
185	0x401fbeee	2.4960284
186	0xbcef68b6	-0.029224735
187	0x3f28d3c1	0.6594811
188	0x3f4287d1	0.7598849
189	0x3f537829	0.82605225
190	0xbfbf7309	-1.4956981
191	0xc025f2b9	-2.5929396
192	0xbfc0cf2d	-1.5063225
193	0x3f336039	0.700687
194	0xbe4c9b2b	-0.19981067
195	0x3f1a8dec	0.60372806
196	0x3ed23b33	0.4106079
197	0xbf9673cf	-1.1754092
198	0x401939f8	2.3941631
199	0xbf7e7960	-0.99403954
200	0x3f166bee	0.5875844
201	0x3fda193f	1.7038954
202	0x3fd3f87a	1.6560204
203	0x3eb81011	0.35949758
204	0xbdc66b25	-0.09688405
205	0x3eea2a9e	0.4573564
206	0x3f8e698b	1.1125959
207	0xbf18d584	-0.597008
208	0x3f8e4453	1.1114601
209	0x3f617118	0.8806319
210	0xbfa308db	-1.2737077
211	0x3d87cf6b	0.06631359
212	0xbe88ef29	-0.26744965
213	0x3e241650	0.16024137
214	0x3f8ad05a	1.0844834
215	0xbeb6d779	-0.35711268
216	0x3f11e4c5	0.569897
217	0xbf0a84c4	-0.54108834
218	0x3efdfac0	0.4960537
219	0x3fd79026	1.6840866
220	0x3ec59257	0.3858821
221	0x3e476fcc	0.19476241
222	0xbf5c0f9b	-0.8596131
223	0x3da8a914	0.08235374
224	0x3f1306b4	0.57432103
225	0xbde4c9ee	-0.111713275
226	0xbfcacaca	-1.5843136
227	0x3f560496	0.8360075
228	0xbb09c815	-0.00210238
229	0x3f4c3933	0.7977478
230	0xbf4a465d	-0.79013616
231	0x3fa53a23	1.2908367
232	0xbefc6bf7	-0.4930112
233	0x3ef1f391	0.4725614
234	0xbe940686	-0.28911227
235	0x3f5236c3	0.8211481
236	0x3fa402a6	1.2813308
237	0xbee6c972	-0.45075566
238	0x3cd37abc	0.02581536
239	0x3c627f5f	0.013824313
240	0x3ef1b73c	0.4721011
241	0xbea0a845	-0.3137838
242	0x3ed5de1f	0.41771027
243	0x3fea1ecc	1.8290648
244	0xbef014bb	-0.46890816
245	0x3f8ed509	1.1158763
246	0xbf308c1e	-0.689638
247	0xbf9ab1c9	-1.2085506
248	0xbf964c53	-1.1742042
249	0x3f1d57d1	0.6146212
250	0xbec876af	-0.39153048
251	0x3fb9790d	1.4490067
252	0x3e4c8c75	0.19975455
253	0xbfc3f6e4	-1.530972
254	0xbf62aead	-0.88547784
255	0x3ecf4173	0.4047962

ebd_model.norm.weight f4 [60]
0	0x3f8238e4	1.0173612
1	0x3f7c9bce	0.9867524
2	0x3f8016d3	1.0006965
3	0x3f803bff	1.0018309
4	0x3f81339c	1.0093875
5	0x3f82d543	1.0221332
6	0x3f7a4e31	0.9777556
7	0x3f869b9c	1.0516238
8	0x3f80756e	1.0035837
9	0x3f826df0	1.01898
10	0x3f7df3af	0.99199957
11	0x3f814697	1.0099667
12	0x3f81d19c	1.0142093
13	0x3f81ee1b	1.0150789
14	0x3f83c089	1.0293132
15	0x3f818839	1.0119697
16	0x3f82059f	1.0157965
17	0x3f82fb1e	1.0232885
18	0x3f760363	0.9609892
19	0x3f8215cd	1.0162903
20	0x3f823333	1.0171875
21	0x3f836d4d	1.0267731
22	0x3f7964ac	0.9741924
23	0x3f81a6fe	1.0129087
24	0x3f84e3a7	1.0381974
25	0x3f856bac	1.0423484
26	0x3f7fa86c	0.99866366
27	0x3f84b203	1.0366825
28	0x3f8add59	1.08488
29	0x3f83460e	1.0255754
30	0x3f7d8511	0.9903117
31	0x3f8173d7	1.0113477
32	0x3f7e1bab	0.9926097
33	0x3f836cda	1.0267594
34	0x3f7d5104	0.98951745
35	0x3f856f01	1.0424501
36	0x3f76001d	0.9609392
37	0x3f7cca3e	0.987461
38	0x3f832cc0	1.0248032
39	0x3f88c7bd	1.0685955
40	0x3f8330a6	1.0249221
41	0x3f821048	1.0161219
42	0x3f8174d6	1.011378
43	0x3f84ac07	1.0364999
44	0x3f80e792	1.007067
45	0x3f84ec9e	1.038471
46	0x3f8236ae	1.0172937
47	0x3f830970	1.0237255
48	0x3f7f7792	0.99791825
49	0x3f7e6da1	0.9938603
50	0x3f820cd4	1.0160165
51	0x3f809d0e	1.0047929
52	0x3f80d17b	1.0063928
53	0x3f812ae3	1.0091213
54	0x3f839c46	1.0282066
55	0x3f7f969f	0.99839205
56	0x3f8116d5	1.0085093
57	0x3f8253a6	1.0181777
58	0x3f833092	1.0249197
59	0x3f85f5a2	1.0465586

ebd_model.norm.bias f4 [60]
0	0x3b059af0	0.002038654
1	0xbc7f1ac8	-0.01557035
2	0xbbffd640	-0.007807523
3	0xbca46ca4	-0.020071335
4	0xbc7e2c7a	-0.015513534
5	0xbcc97602	-0.024592403
6	0xbac3ac38	-0.0014928645
7	0x3bc43517	0.005987774
8	0xbbc799ea	-0.006091346
9	0x3b9dc2cf	0.0048144828
10	0x3c6bd748	0.014394589
11	0x3bd6105b	0.0065327114
12	0x3c4cfc06	0.012511259
13	0xbc8c7ec2	-0.017150287
14	0x3b98f1f2	0.004667514
15	0xbb18cceb	-0.00233155
16	0xbc6e6851	-0.014551238
17	0xbc2049f7	-0.00978326
18	0x3c2f2ca5	0.010691796
19	0x3c80aea6	0.015708279
20	0x3c55e1d2	0.013054328
21	0x3c0477ba	0.008085186
22	0x3c6ca25c	0.014443006
23	0x3c236309	0.009972342
24	0x3c2e23b1	0.010628627
25	0xbc57b496	-0.013165614
26	0xbc660f16	-0.014041683
27	0xbcb1bdb4	-0.021696903
28	0x3906b1c7	0.00012845463
29	0x3c0a12de	0.00842735
30	0xbb96a13c	-0.0045968574
31	0xbb9dcbaa	-0.0048155384
32	0x3b910d1e	0.0044266125
33	0x3bcdd26b	0.0062811873
34	0xbc2fdd76	-0.010733953
35	0x3af905b5	0.0018998893
36	0x3d146828	0.036232144
37	0x3c3d6a5e	0.011561004
38	0x3ca88599	0.020571517
39	0x3b593c50	0.0033147521
40	0x3c94d471	0.018167706
41	0xbcbf86e7	-0.023379756
42	0xbbf6fce3	-0.0075374707
43	0x3b500337	0.0031740197
44	0xbc0e7fe2	-0.008697482
45	0xbb8b5ff2	-0.004253381
46	0xba91c1a1	-0.0011120328
47	0xbb14c43c	-0.0022699973
48	0x3c922fff	0.017845152
49	0xbd22fd31	-0.039792243
50	0xbc81a313	-0.01582483
51	0x3c07c887	0.008287556
52	0x3c10f929	0.008848467
53	0xbb0a83b4	-0.002113563
54	0xba302c55	-0.0006720473
55	0xbbc19b36	-0.005908395
56	0xbc0f4cfd	-0.008746383
57	0x3b7214b5	0.0036938612
58	0xbb2247b5	-0.002476198
59	0xbaaffcb4	-0.0013426752

Encoder_Layer_model.attention.Q_linear.weight f4 [60, 60]
0	0x3cef5160	0.029213607
1	0x3dd6927c	0.104771584
2	0x3dbaf154	0.09128061
3	0xbd420fa0	-0.047378182
4	0xbdd88016	-0.105713055
5	0x3d0b4768	0.034003645
6	0xbdb494b4	-0.08817425
7	0xbe0379d8	-0.12839448
8	0x3db58ef8	0.0886516
9	0xbddb22ba	-0.10699983
10	0x3e027bd3	0.12742548
11	0xbdf393e5	-0.11893443
12	0xbdd74805	-0.105117835
13	0x3d98027a	0.07422347
14	0x3c233540	0.009961426
15	0xbd667a4e	-0.056268983
16	0x3d48b6c4	0.049002424
17	0xbdabc916	-0.083879635
18	0xbd91baa2	-0.071156755
19	0xbdfea049	-0.12432916
20	0xbd876e85	-0.06612877
21	0xbde31806	-0.110885665
22	0x3de28e86	0.110623404
23	0xbd65e0ca	-0.05612258
24	0x3cb36fe0	0.021903932
25	0xbd6dac64	-0.058025733
26	0xbcf24abc	-0.029576652
27	0x3dc1250a	0.09430893
28	0x3cd73c98	0.02627401
29	0x3d7f4f74	0.06233163
30	0x3d2cc7a8	0.042182595
31	0xbdd77cda	-0.105218604
32	0x3d9ec8c6	0.07753138
33	0x3dd6381e	0.10459922
34	0x3d1e0828	0.038581997
35	0x3dd29dae	0.10283981
36	0xbd7bf4a6	-0.06151261
37	0xbdacfc60	-0.08446574
38	0xbdd45ce4	-0.1036928
39	0xbca73928	-0.020412996
40	0xbc512e30	-0.01276736
41	0xbd9647b9	-0.07337899
42	0xbd34d724	-0.044150487
43	0xbd2a4ad2	-0.04157526
44	0x3dfefdb2	0.12450732
45	0xbc170b88	-0.009219058
46	0x3dd65842	0.104660526
47	0x3c4bc030	0.012435958
48	0x3d3c6d58	0.046002716
49	0x3d985c66	0.074394986
50	0xbdf35b1e	-0.118826136
51	0xbd6e5a18	-0.05819139
52	0xbdc8f03d	-0.09811447
53	0x3e006cfb	0.12541573
54	0x3d420d1c	0.047375783
55	0xbd5da1de	-0.054109447
56	0xbdc76290	-0.09735596
57	0x3d926a32	0.071491614
58	0x3cf57cd0	0.029966742
59	0xbd821325	-0.06351308
60	0xbdbfe24e	-0.09369336
61	0xbd89fb8c	-0.06737432
62	0x3d00c4b8	0.031437606
63	0xbdde9b89	-0.1086951
64	0xbc5f32e8	-0.013622977
65	0x3d9cee04	0.076625854
66	0x3d8d38c2	0.06895591
67	0x3c644840	0.013933241
68	0x3c60ba40	0.01371628
69	0x3cf71b70	0.03016445
70	0x3d4e855c	0.05042015
71	0x3dd0ae42	0.10189487
72	0x3d0fa2b8	0.03506729
73	0x3d915928	0.07097083
74	0x3db84d9e	0.08999179
75	0xbdcd18d5	-0.10014502
76	0xbd8d1e85	-0.06890587
77	0x3d9129ee	0.070880756
78	0x3cd3e330	0.025865167
79	0xbd989e20	-0.07452035
80	0x3d1c4228	0.03814903
81	0xbdf05c6f	-0.1173638
82	0xbd44c092	-0.04803521
83	0x3d855328	0.065100014
84	0xbb5eee80	-0.0034016669
85	0xbdb2acb3	-0.08724346
86	0x3d82b0be	0.06381367
87	0x3c12fc30	0.008971259
88	0xbc975a08	-0.018475547
89	0xbdfe45a0	-0.12415624
90	0xbd3ebe76	-0.046568356
91	0x3c699d70	0.014258727
92	0xbd8fae28	-0.070156395
93	0x3cb1fbe8	0.021726564
94	0xbdbbd271	-0.09170998
95	0x3dcc04d6	0.0996186
96	0x3dcb974c	0.09940967
97	0x3d9bbb00	0.07604027
98	0xbc7b4758	-0.015336834
99	0xbe03bd47	-0.12865172
100	0xbd4e7b16	-0.050410353
101	0xbc2b5b48	-0.010458775
102	0xbdf3ae9a	-0.11898537
103	0x3dd02862	0.101639524
104	0x3d168510	0.036747992
105	0x3dc8973a	0.09794469
106	0xbdec8d1a	-0.115503505
107	0xbd87c08e	-0.06628524
108	0x3cee5a10	0.02909568
109	0xbb00f040	-0.001967445
110	0xbd99c4a2	-0.07508208
111	0x3dc15260	0.0943954
112	0x3d5a117c	0.05323933
113	0xbbc9b930	-0.0061561093
114	0x3dfbf7e2	0.12303139
115	0xbe00ed31	-0.12590481
116	0xbdf02830	-0.11726415
117	0x3cd2eb98	0.025747105
118	0x3deff1fe	0.11716078
119	0x3d9577ea	0.072982624
120	0xbd917f08	-0.071043074
121	0x3dbdaf90	0.092620015
122	0x3d895fe2	0.06707741
123	0x3bf07a00	0.0073387623
124	0x3da74672	0.08167733
125	0x3cd14b80	0.025548697
126	0x3931c800	0.00016954541
127	0xbd126a22	-0.035745747
128	0xbd8c77f2	-0.06858815
129	0xbda6a9ee	-0.0813788
130	0xbc8b0664	-0.01697082
131	0xbdb4d0c4	-0.088288814
132	0x3d601ee4	0.05471696
133	0x3d155224	0.03645529
134	0xbe00e48f	-0.12587188
135	0xbdc27b16	-0.09496133
136	0x3dbcf250	0.09225905
137	0xbd8a9bb3	-0.067679785
138	0xbaae8600	-0.0013315082
139	0xbda95914	-0.082689434
140	0xbce74cc0	-0.02823484
141	0x3d8265d2	0.06367077
142	0x3d06679c	0.032813653
143	0x3d81c604	0.063365966
144	0xbbf650f0	-0.0075169727
145	0xbdd2f3c6	-0.10300402
146	0xbad4f700	-0.0016247928
147	0x3d9cbf98	0.07653731
148	0x3cf76070	0.030197352
149	0x3cdab8c0	0.026699424
150	0x3cd03d18	0.025419757
151	0x3dd8eef2	0.1059245
152	0x3d85612a	0.06512673
153	0xbcacf904	-0.021114834
154	0xbd8f71c6	-0.070041224
155	0x3dd72558	0.1050517
156	0xbd898c72	-0.06716241
157	0xbdb0bf2f	-0.086302154
158	0x3d252e5c	0.040327415
159	0xbda8d60d	-0.08243952
160	0xbde423c2	-0.11139633
161	0xbdd6196d	-0.10454068
162	0x3d0264d8	0.031834453
163	0xbda625b5	-0.08112661
164	0x3de9e458	0.11420506
165	0xbba9c490	-0.005180903
166	0xbd609532	-0.054829784
167	0xbda21fd6	-0.079162285
168	0xbd1e1534	-0.03859444
169	0x3de6a954	0.112627655
170	0xbda8c55b	-0.082407676
171	0xbdf4cc97	-0.11953085
172	0x3d1d5570	0.038411558
173	0x3d334f30	0.04377669
174	0xbde0032f	-0.10938107
175	0xbd6d5c2c	-0.05794923
176	0x3de52c7e	0.11190127
177	0xbd79f30e	-0.06102281
178	0x3d5ddcc4	0.054165617
179	0xbd7dd556	-0.06197103
180	0xbde96940	-0.11397028
181	0xbdff0da0	-0.12453771
182	0x3dc9ae0c	0.0984765
183	0x3d221cac	0.039578125
184	0x3d1661f8	0.036714524
185	0x3d360064	0.044433966
186	0x3d4bca0c	0.049753234
187	0x3dae8c68	0.08522874
188	0x3dcad8ea	0.09904654
189	0x3dcbe22e	0.0995525
190	0x3d29eb74	0.04148431
191	0x3cbcdf90	0.023055822
192	0x3ce30990	0.02771452
193	0xbdd624d6	-0.10456245
194	0x3d6bc570	0.057561338
195	0x3d0267a8	0.031837136
196	0x3d65da20	0.056116223
197	0xbd027bc2	-0.031856306
198	0x3ddb9b0e	0.10722934
199	0x3c7e1710	0.015508428
200	0xbcfaae98	-0.03060083
201	0xbb6f2600	-0.0036491156
202	0xbd53101e	-0.051529042
203	0xbc9b6428	-0.018968657
204	0x3de0680e	0.10957347
205	0x3d2f670c	0.042822883
206	0xbc6c6658	-0.0144286975
207	0x3b9fc160	0.004875347
208	0x3cf194f0	0.029489964
209	0xbd9895af	-0.07450425
210	0xbd9105b8	-0.07081169
211	0x3de92280	0.113835335
212	0x3a386b00	0.0007034987
213	0x3d1d6160	0.038422942
214	0xbd7357f8	-0.059410065
215	0xbdc2589e	-0.09489559
216	0x3cd1cc58	0.025610134
217	0x3d8ecdbe	0.06972836
218	0xbdf9061f	-0.12159371
219	0xbe02bf1e	-0.12768218
220	0xbd305b34	-0.043055728
221	0x3daafb06	0.0834866
222	0xbdec3eb7	-0.115353994
223	0x3dd33ae8	0.1031397
224	0x3def1b52	0.11675133
225	0xbced5864	-0.028972812
226	0x3c071b80	0.008246303
227	0xbbaeb720	-0.005331889
228	0x3e00cb87	0.1257764
229	0x3c6b0d00	0.014346361
230	0x3d013578	0.031545132
231	0xbd34ee76	-0.044172727
232	0xbaceac80	-0.0015767962
233	0xbd8c360b	-0.068462454
234	0x3bd4aec0	0.0064905584
235	0xbc92c08c	-0.01791408
236	0x3cc51d28	0.024061754
237	0x3ccd9c28	0.025098875
238	0xbdd853f3	-0.10562887
239	0x3db0a3d6	0.08624999
240	0x3d916ee4	0.07101229
241	0x3dba3ed8	0.09094018
242	0x3dc2b716	0.09507577
243	0x3d0870b0	0.033310592
244	0x3d9088cc	0.07057342
245	0x3d825256	0.063633606
246	0x3d9da44e	0.07697354
247	0xbd9f37e2	-0.07774331
248	0x3d7a8abc	0.061167464
249	0xbc2978e8	-0.010343768
250	0x3d4c891c	0.049935445
251	0x3d4260c4	0.047455564
252	0xbdc5135a	-0.09622832
253	0xbd708db2	-0.05872888
254	0xbdbc3952	-0.091906205
255	0xbd0c961e	-0.03432285

Encoder_Layer_model.attention.Q_linear.bias f4 [60]
0	0xbdd599d6	-0.104297325
1	0x3dd2db1e	0.102956995
2	0xbdf9a3d1	-0.121894486
3	0x3c53c1a0	0.012924582
4	0xbdf02050	-0.11724913
5	0x3dd880a0	0.10571408
6	0xbd7531c8	-0.05986193
7	0xbda9d652	-0.082928315
8	0x3d77db30	0.060511768
9	0xbce2c978	-0.027683958
10	0x3daa72fe	0.08322714
11	0x3df6ca32	0.120502844
12	0x3dbbf4e4	0.091775686
13	0x3c83b410	0.016077071
14	0xbc30eea8	-0.010799088
15	0xbdbd6ba8	-0.092490494
16	0xbd9ad2ca	-0.07559736
17	0xbd9d4f5a	-0.07681151
18	0x3da05000	0.07827759
19	0x3bafddc0	0.005367011
20	0xbdaf76e8	-0.085676014
21	0x3deddb9c	0.11614153
22	0xbd26ec2c	-0.040752575
23	0x3e01c917	0.12674366
24	0x3dfb7d82	0.12279798
25	0x3cb6b7f0	0.022304505
26	0xbdd8bbe6	-0.10582714
27	0x3d2e4608	0.042547256
28	0x3b372940	0.002794817
29	0xbd820878	-0.063492715
30	0xbd9e37e9	-0.07725508
31	0xbdb83216	-0.08993928
32	0x3ca34818	0.019931838
33	0x3d5c9a50	0.0538581
34	0x3cb25dd0	0.021773249
35	0x3d98fe2c	0.074703544
36	0xbd411014	-0.047134474
37	0xbd3eb5aa	-0.046559967
38	0x3e016be9	0.1263882
39	0xbdc8782f	-0.09788548
40	0xbdf39d9c	-0.11895296
41	0x3e00a53f	0.12563036
42	0x3da3da96	0.08000676
43	0xbcb0e5bc	-0.02159392
44	0x3d21ae8c	0.0394731
45	0xbd266816	-0.040626608
46	0xbc92842c	-0.01788529
47	0x3c929d98	0.017897412
48	0xbd35a966	-0.044351004
49	0x3c149790	0.009069338
50	0xbd46a698	-0.04849872
51	0xbddad363	-0.1068485
52	0x3d768834	0.060188487
53	0xbdc1fc08	-0.09471899
54	0xbe0128cf	-0.12613223
55	0x3cd14360	0.025544822
56	0x3dc17016	0.09445207
57	0x3d3790c4	0.044815794
58	0xbdbb146a	-0.09134753
59	0x3d9f3cd8	0.07775277

Encoder_Layer_model.attention.K_linear.weight f4 [60, 60]
0	0xbd191b1c	-0.03737937
1	0xbc82aa80	-0.015950441
2	0x3d9d6850	0.07685912
3	0x3d4fce58	0.050733894
4	0xbd3a6a3e	-0.045511477
5	0x3da0a47e	0.078438744
6	0xbd0ce866	-0.03440132
7	0xbd0e384a	-0.03472165
8	0x3db6597e	0.08903788
9	0xbcef3630	-0.029200643
10	0xbb292b80	-0.0025813282
11	0x3df759a0	0.120776415
12	0x3dfe5156	0.12417857
13	0x3cf90f80	0.030402899
14	0x3dc6da88	0.0970965
15	0xbc952ff8	-0.01821135
16	0xbd7354e6	-0.059407137
17	0x3df74d00	0.120752335
18	0x3d8abf9e	0.06774829
19	0x3db4c374	0.08826342
20	0xbd800231	-0.06250418
21	0x3d8a659c	0.06757662
22	0x3dd86c48	0.10567528
23	0x3c4a5890	0.0123502165
24	0x3db03a8e	0.086049184
25	0xbdefe6b0	-0.11713922
26	0x3d512104	0.051056877
27	0xbd0298d6	-0.031884037
28	0x3df03ecc	0.117307276
29	0x3d3edf00	0.046599388
30	0x3e02e717	0.12783466
31	0xbd37d116	-0.044877134
32	0x3c428620	0.011872798
33	0x3dbc34a0	0.09189725
34	0xbdbf35ce	-0.09336434
35	0xbd386fa2	-0.045028336
36	0xbdd39153	-0.10330453
37	0xbdc6806c	-0.09692463
38	0x3d6a370c	0.057181403
39	0xbd1fb41a	-0.038990118
40	0x3dace668	0.08442384
41	0x3c4346f0	0.011918768
42	0x3d3a39bc	0.045465216
43	0x3c6134f0	0.013745531
44	0xbdf7c7b6	-0.12098639
45	0xbc9f7578	-0.019465193
46	0xbd913268	-0.07089692
47	0xbd517a16	-0.05114182
48	0x3dd4bd7a	0.10387702
49	0xbdcc972f	-0.099897735
50	0xbdc10d36	-0.09426348
51	0xbd2993ac	-0.041400596
52	0xbd6aad0a	-0.05729393
53	0x3d0285a8	0.031865746
54	0x3da9a6bc	0.08283755
55	0x3ca5f898	0.02026014
56	0x3b150080	0.0022735894
57	0x3d7dfdc0	0.062009573
58	0x3d9de3a2	0.07709433
59	0x3b94c160	0.0045396537
60	0xbdb28a10	-0.087177396
61	0xbde519d0	-0.11186564
62	0x3e03ec65	0.12883146
63	0x3d2bfc5c	0.041988716
64	0x3df20ed2	0.11819233
65	0xbd4af506	-0.04955008
66	0x3d116444	0.03549601
67	0xbd8b3af2	-0.06798352
68	0xbd8b3160	-0.06796527
69	0xbd71f8a8	-0.059075028
70	0x3e041f7d	0.12902637
71	0x3dc0c3a6	0.09412317
72	0xbda2b598	-0.079447925
73	0xbdba83e6	-0.09107189
74	0x3d2e6b80	0.04258299
75	0xbcf96120	-0.03044182
76	0x3bca4fa0	0.006174043
77	0x3c870798	0.016483113
78	0xbde78235	-0.11304132
79	0x3ce997d0	0.028514773
80	0xba93dc00	-0.0011280775
81	0xbdb90b48	-0.09035355
82	0xbe02bbe6	-0.1276699
83	0x3d870060	0.065918684
84	0xbdf1c4e3	-0.11805131
85	0xbd6e36ea	-0.05815784
86	0x3da0b4c8	0.07846981
87	0xbdb02d66	-0.08602409
88	0xbd7a6da0	-0.061139703
89	0xbda698b0	-0.081345916
90	0x3d9ba332	0.075994864
91	0x3d23997c	0.039941296
92	0x3c5a4ee0	0.013324469
93	0x3d3a3080	0.04545641
94	0x3d1748dc	0.03693472
95	0xbcdf72d4	-0.027276434
96	0xbc42f0c0	-0.01189822
97	0xbda57ea7	-0.08080798
98	0xbd786106	-0.060639404
99	0x3b029400	0.001992464
100	0xbc805944	-0.015667565
101	0x3d051e10	0.032499373
102	0x3d7afc68	0.06127587
103	0x3dcad170	0.09903228
104	0x3dfd58a2	0.12370421
105	0xbc20c128	-0.009811677
106	0x3d508114	0.05090435
107	0xbdd6231e	-0.10455917
108	0x3d9903b0	0.074714065
109	0xbd0d636a	-0.034518637
110	0xbdd1cb9f	-0.10243916
111	0xbdcddd02	-0.100519195
112	0xbddc6d7b	-0.10763069
113	0xbd743d4c	-0.05962877
114	0x3d7174e4	0.058949366
115	0xbdd7a690	-0.10529816
116	0xbc79a668	-0.015237428
117	0xbca45bf8	-0.020063385
118	0x3d428318	0.047488302
119	0xbd579148	-0.052628785
120	0x3d85f258	0.06540364
121	0xbda38238	-0.07983822
122	0x3d9b5a4e	0.075855836
123	0xbe03ba17	-0.12863956
124	0xbdb4114c	-0.087923616
125	0x3d397974	0.045281842
126	0x3ca24a00	0.019810677
127	0x3db932f2	0.0904292
128	0x3d89b5d8	0.06724137
129	0xbddc4f8a	-0.10757358
130	0x3dcff262	0.10153653
131	0xbd093976	-0.033502065
132	0xbcc7bc74	-0.024381854
133	0xbd611c06	-0.054958366
134	0xbcb7613c	-0.022385232
135	0xbdf6d861	-0.1205299
136	0x3c2388d0	0.009981349
137	0x3dc738e2	0.097276464
138	0xbcd360b4	-0.025802948
139	0x3dcb4d6c	0.099268764
140	0xbd6ef980	-0.05834341
141	0x3d5598dc	0.05214773
142	0x3c511e20	0.01276353
143	0xbd4d3b42	-0.05010534
144	0x3e00e04f	0.12585567
145	0x3c2ddc20	0.010611564
146	0x3bbc5d20	0.005748406
147	0xbc647dc8	-0.013946004
148	0xbbe530a0	-0.006994322
149	0x3dd524cc	0.10407409
150	0xbca0f568	-0.019648269
151	0x3d9ec660	0.07752681
152	0x3d3fc87c	0.046822056
153	0x3dac70a6	0.084199235
154	0xbdc862a2	-0.09784438
155	0xbde7aebd	-0.113126256
156	0xbd2da0b6	-0.042389594
157	0xbd139c7e	-0.036037914
158	0x3dfbecb6	0.123010084
159	0x3e02431d	0.12720914
160	0xbcfc2c3c	-0.030782811
161	0xbd7d5e2c	-0.061857387
162	0xba0ef800	-0.0005453825
163	0x3d4a6224	0.04941
164	0x3d34bab0	0.04412335
165	0x3cc7a1b0	0.02436909
166	0x3dc22df4	0.09481421
167	0x3c60d7c0	0.013723314
168	0x3dd5efa0	0.104460955
169	0x3d00cf88	0.031447917
170	0xbc3c0770	-0.011476383
171	0x3ddc1f98	0.107482135
172	0x3b898b00	0.0041974783
173	0x3ba8ce80	0.00515157
174	0xbccc63d0	-0.024949938
175	0x3d9b4b52	0.075827256
176	0xbd1cccb6	-0.038281165
177	0x3dce4430	0.100715995
178	0x3d8d2886	0.06892495
179	0xbb07af00	-0.0020703673
180	0xbcad6134	-0.021164514
181	0x3d4f33dc	0.050586566
182	0xbe011731	-0.12606503
183	0xbd2ee61c	-0.04269992
184	0xbd3aea20	-0.045633435
185	0xbc818e74	-0.015814997
186	0xbd7d0cae	-0.06177967
187	0xbd6465f2	-0.055761285
188	0x3d7b7704	0.0613928
189	0xbc603298	-0.0136839375
190	0xbdb73fb4	-0.08947697
191	0xbc18cb70	-0.009325847
192	0x3d2abd3c	0.041684374
193	0xbd563c18	-0.052303404
194	0x3de0f38c	0.10983953
195	0xbdb788e5	-0.089616574
196	0x3de635d2	0.11240734
197	0x3d4b8ac8	0.0496929
198	0xbd97f81e	-0.074203715
199	0xbdfa4dcf	-0.12221872
200	0x3d4e45e8	0.050359637
201	0xbcc53288	-0.024071947
202	0x3d1cad94	0.038251474
203	0x3d61ca68	0.05512467
204	0xbdb34032	-0.08752479
205	0x3c789cb0	0.015174076
206	0xbce16810	-0.027515441
207	0xbdee1106	-0.11624341
208	0x3cba96a0	0.022776902
209	0x3ce20790	0.027591497
210	0xbdca420b	-0.09875878
211	0x3df8affa	0.1214294
212	0x3d8aa558	0.06769818
213	0x3d964f84	0.07339385
214	0xbde6614c	-0.11249027
215	0xbde47365	-0.11154822
216	0x3d646ca0	0.055767655
217	0x3d98b020	0.07455468
218	0xbde2bfa3	-0.11071708
219	0x3dfde57e	0.12397288
220	0xbce90fdc	-0.028449945
221	0xbdd658d9	-0.10466165
222	0xbdc1f99e	-0.09471439
223	0xbcf55da0	-0.02995187
224	0x3d8b24ca	0.06794126
225	0xbdb659b8	-0.08903831
226	0x3dc2cda6	0.095118806
227	0x3e041bcb	0.12901227
228	0x3df88b7a	0.12135978
229	0x3d70b28c	0.058764026
230	0xbd580374	-0.05273767
231	0xbd49059e	-0.049077623
232	0x3dbdd75e	0.09269594
233	0xbcdcde54	-0.026961483
234	0x3ca1d3e0	0.01975435
235	0x3e0422ef	0.12903951
236	0xbe03695d	-0.12833162
237	0xbcf18068	-0.029480174
238	0xbd510db4	-0.05103846
239	0xbcab3120	-0.020897448
240	0x3bae4060	0.0053177327
241	0xbce51644	-0.027964719
242	0x3e005471	0.12532212
243	0x3d5672a4	0.052355424
244	0xbda61e20	-0.08111215
245	0x3e0018b3	0.12509422
246	0xbd12c4f4	-0.03583236
247	0x3c9849f0	0.018589944
248	0x3c457240	0.012051165
249	0xbdc255b6	-0.09489004
250	0x3d8683ea	0.06568129
251	0xbda0a126	-0.078432366
252	0xbdeb8d8b	-0.115016066
253	0x3dddef58	0.10836667
254	0x3d9e50ec	0.077302784
255	0xbd5d571e	-0.05403816

Encoder_Layer_model.attention.K_linear.bias f4 [60]
0	0xbdaf5ddf	-0.08562826
1	0xbcb30ea0	-0.02185756
2	0x3d9bb8c6	0.07603602
3	0xbda9a3b6	-0.082831785
4	0xbdcbd898	-0.09953421
5	0xbc7a0dc0	-0.015262067
6	0x3d87fa08	0.066394866
7	0xbdb3b266	-0.08774261
8	0x3c87f300	0.016595364
9	0xbd5e48ca	-0.054268636
10	0x3c9af618	0.018916175
11	0x3ca11b60	0.019666374
12	0x3db1fd02	0.086908355
13	0xbd859ae1	-0.065236814
14	0xbdf3265f	-0.11872553
15	0x3c790560	0.015199035
16	0x3d93b138	0.07211536
17	0xbd692cb2	-0.05692739
18	0x3d2b1b2c	0.04177396
19	0xbdf0fe76	-0.117672846
20	0x3d8273e8	0.063697636
21	0x3d88de54	0.06683031
22	0xbdf6b67b	-0.12046524
23	0xbcf8acb4	-0.030355789
24	0x3d649ac4	0.05581166
25	0x3d6ea9bc	0.05826734
26	0x3d1d1e6c	0.03835909
27	0xbdbedb86	-0.093192145
28	0x3ddc26e8	0.10749608
29	0xbde71eba	-0.112851575
30	0xbb2c4d40	-0.0026291162
31	0xbd8cc4b6	-0.06873457
32	0xbdd8e8e2	-0.10591294
33	0xbd6804ee	-0.056645326
34	0x3dec10e6	0.115266606
35	0xbde5ec1c	-0.11226675
36	0x3db47ca0	0.08812833
37	0x3dead536	0.11466448
38	0xbd94b0ee	-0.07260309
39	0x3d20b994	0.03923948
40	0xbd4bccd0	-0.04975587
41	0xbdf8c1b9	-0.12146325
42	0xbde7c9cf	-0.11317789
43	0xbcb72534	-0.022356607
44	0xbdbe7f74	-0.093016535
45	0xbc8ace74	-0.016944148
46	0x3d988478	0.074471414
47	0x3d806bae	0.06270538
48	0xbe02b239	-0.12763299
49	0x3d4dd594	0.050252512
50	0xba6a6100	-0.0008940846
51	0x3d3569f4	0.044290498
52	0x3da913ba	0.08255716
53	0xbddc6404	-0.10761264
54	0xbd89021c	-0.066898555
55	0x3d629c98	0.05532512
56	0x3caf7a38	0.021420583
57	0xbd159512	-0.036519118
58	0xbd855414	-0.06510177
59	0x3c9c7a70	0.019101351

Encoder_Layer_model.attention.V_linear.weight f4 [60, 60]
0	0xbd0ee126	-0.034882687
1	0x3d1aaafc	0.03776072
2	0xbd69969a	-0.05702839
3	0x3e007f8d	0.12548657
4	0x3c84b6a8	0.016200379
5	0xbd0d1ad4	-0.034449413
6	0xbdda2a9b	-0.106526576
7	0x3e00b367	0.12568437
8	0xbdc62dc4	-0.09676698
9	0xbde65f1c	-0.112486094
10	0x3d4f33ac	0.050586388
11	0xbd885b96	-0.06658094
12	0x3dc0eda2	0.09420325
13	0x3cd392e8	0.025826886
14	0xbd9ad088	-0.075593054
15	0xbdea2c2a	-0.11434205
16	0xbdaef4c9	-0.08542783
17	0x3dfeef12	0.12447943
18	0x3b679300	0.0035335422
19	0xbd9a736c	-0.07541546
20	0x3de09f2c	0.109678596
21	0x3d390590	0.04517132
22	0x3dc569a4	0.0963929
23	0x3db549b4	0.088519484
24	0x3da88642	0.08228733
25	0x3d8916c6	0.06693797
26	0x3d6e814c	0.058228776
27	0x3d568670	0.052374303
28	0x3d820e10	0.063503385
29	0xbd1daf54	-0.038497284
30	0xbd005094	-0.031326845
31	0xbd643166	-0.055711173
32	0xbd907d94	-0.07055202
33	0x3de0b022	0.10971095
34	0x3d9e2f0e	0.07723819
35	0x3dca2f06	0.0987225
36	0x3d52074c	0.05127649
37	0x3db99020	0.09060693
38	0x3da07c34	0.0783619
39	0xbc444e38	-0.011981539
40	0xbdf5d632	-0.12003745
41	0x3d4d0a28	0.050058514
42	0xbd244efc	-0.040114388
43	0xbda91e27	-0.08257704
44	0x3dc56d30	0.096399665
45	0x3de820da	0.11334391
46	0x3d9e6c2c	0.07735476
47	0xbd2b682c	-0.041847393
48	0xbd6ae010	-0.05734259
49	0x3ddf98b8	0.10917801
50	0x3d9d8f8a	0.076933935
51	0xbcb7ddb0	-0.022444576
52	0xbdc9fa77	-0.098622255
53	0xbd6b2316	-0.057406507
54	0xbd50cfa4	-0.05097927
55	0xbd9f3c58	-0.077751815
56	0xbde12654	-0.10993639
57	0xbcefe168	-0.029282287
58	0x3dd189f6	0.10231392
59	0xbcb091a0	-0.021553814
60	0x3d5b0540	0.053471804
61	0x3b0b7ec0	0.0021285266
62	0xbde48c79	-0.111596055
63	0x3dd3352e	0.103128776
64	0x3de22cce	0.11043702
65	0xbce2fba0	-0.027707875
66	0x3d3c4054	0.045959786
67	0x3d56521c	0.0523244
68	0xbda84f58	-0.082182586
69	0x3cc94718	0.024570033
70	0xbd96df41	-0.07366801
71	0x3d82d0cc	0.06387481
72	0xbdd0a7d0	-0.10188258
73	0x3ba394e0	0.0049921125
74	0xbd2ebf3c	-0.042662844
75	0xbde27a3b	-0.1105847
76	0x3c484190	0.012222663
77	0xbd09dac4	-0.033655897
78	0xbc127980	-0.008940101
79	0x3bee5ae0	0.0072740167
80	0x3dd4d0f2	0.10391416
81	0xbdbaccf2	-0.091211215
82	0x3d64ebdc	0.055888996
83	0xbd98cae4	-0.07460573
84	0x3d70e4cc	0.058811948
85	0x3d3daa70	0.04630512
86	0x3dd97206	0.10617451
87	0xbd63c01e	-0.05560314
88	0x3c53d8e0	0.012930125
89	0xbcef90ec	-0.029243909
90	0xbdd556e0	-0.10416961
91	0xbdd1f381	-0.10251523
92	0x3df9aa96	0.1219074
93	0x3b894500	0.0041891336
94	0x3d9bcaf6	0.07607071
95	0xbdef5350	-0.116858125
96	0x3dd2abda	0.10286684
97	0x3d955a50	0.07292616
98	0x3d87cf36	0.06631319
99	0x3dac97ee	0.08427416
100	0xbdaec0bc	-0.08532855
101	0x3bed7880	0.0072470307
102	0xbde61ede	-0.11236356
103	0xbc2fd970	-0.0107329935
104	0x3dd5bbee	0.10436235
105	0x3d873260	0.06601405
106	0x3d97af98	0.07406539
107	0xbd94a368	-0.0725773
108	0xbdea60b1	-0.11444224
109	0xbd0fd61e	-0.035116307
110	0x3dc7094e	0.097185716
111	0x3dcdc94e	0.100481614
112	0x3e01866b	0.12648933
113	0x3d667180	0.056260586
114	0xbbeef9e0	-0.007292971
115	0xbdfbe2c9	-0.12299115
116	0xbbe574c0	-0.007002443
117	0x3d9c26ea	0.0762461
118	0x3d3cfea4	0.04614128
119	0xbd2462ca	-0.040133275
120	0xbd8519b7	-0.06499045
121	0x3d955f86	0.0729361
122	0x3bd6afc0	0.0065517128
123	0x3c0d3950	0.008619621
124	0xbd17a43c	-0.03702186
125	0x3d59b7d0	0.053153813
126	0xbd0ae1a2	-0.033906586
127	0x3da1117a	0.078646615
128	0x3cd332f0	0.025781125
129	0xbd1e18d2	-0.03859789
130	0xbc4dd400	-0.012562752
131	0xbd6f0042	-0.058349855
132	0x3dc4e338	0.09613651
133	0xbd13634c	-0.03598337
134	0x3ddb5e90	0.10711396
135	0xbe0157e1	-0.1263118
136	0x3daa8b82	0.0832739
137	0x3d564398	0.052310556
138	0x3dd7644c	0.10517177
139	0xbd3e8220	-0.046510816
140	0xbdb9db9c	-0.0907509
141	0x3d3db0b8	0.04631111
142	0xbdcf6a3d	-0.10127685
143	0x3dd562fe	0.10419272
144	0x3c68b390	0.014202967
145	0x3db893f0	0.09012592
146	0x3db92672	0.09040536
147	0xbcec5e44	-0.028853543
148	0xbd5585de	-0.05212962
149	0xbd14912e	-0.036271267
150	0xbd8ca492	-0.06867327
151	0x3d23acc8	0.0399597
152	0x3cdc81c8	0.026917353
153	0xbdaa0b72	-0.08302964
154	0x3ccd0370	0.025026053
155	0x3df551c2	0.11978485
156	0x3dd42bb6	0.103599
157	0x3d8cadb6	0.0686907
158	0x3c7d8a10	0.015474811
159	0x3d7b5b80	0.061366558
160	0x3d8aae88	0.067715704
161	0xbd5c81a2	-0.053834565
162	0xbd16feae	-0.036863975
163	0xbbb03140	-0.005376965
164	0x3d87dc32	0.06633796
165	0xbde70cc0	-0.11281729
166	0x3cba0358	0.022706673
167	0x3dbc5d88	0.09197527
168	0x3d20ce08	0.039258987
169	0xbdc855cc	-0.097819895
170	0xbd9127b4	-0.07087651
171	0xbdec209d	-0.11529658
172	0xbdd5f2ec	-0.10446724
173	0xbdd4a8db	-0.10383769
174	0xbc281590	-0.010259047
175	0xbd5a2f3a	-0.053267695
176	0xbe00063e	-0.12502381
177	0x3dead9c2	0.11467315
178	0x3cfcaae0	0.030843198
179	0xbdae1b7a	-0.085013345
180	0xbd9408d2	-0.07228245
181	0xbbffd300	-0.0078071356
182	0x3dae99f8	0.08525461
183	0xbd28a9cc	-0.041177556
184	0xbd43be8c	-0.04778914
185	0x3da73bfc	0.08165738
186	0xbc971ae0	-0.018445432
187	0xbd3e3136	-0.04643365
188	0x3db11c52	0.0864798
189	0xbdd48780	-0.10377407
190	0x3d0c4658	0.034246773
191	0xbde5e957	-0.11226147
192	0x3ba3ed80	0.0050026774
193	0xbcb871f4	-0.022515275
194	0xbdb3bdac	-0.087764114
195	0xbd8c7ed6	-0.068601295
196	0x3daa108c	0.08303937
197	0x3dd1e056	0.10247867
198	0x3cdccf48	0.026954308
199	0x3d5dbc5c	0.05413471
200	0x3d94aa6e	0.072590694
201	0xbcb6bbbc	-0.022306316
202	0xbbe964a0	-0.007122591
203	0x3dd6d444	0.10489705
204	0x3da22648	0.07917458
205	0xbd488c92	-0.048962183
206	0x3cf15cf8	0.029463276
207	0x3d209fe0	0.03921497
208	0xbd3b1a96	-0.04567965
209	0x3da104a2	0.07862212
210	0xbd5253a6	-0.051349305
211	0x3d589c70	0.052883565
212	0x3d950ba8	0.07277614
213	0xbc55ef68	-0.013057567
214	0xbdd0cedc	-0.10195705
215	0xbdd9dc13	-0.10637679
216	0xbc8531b8	-0.01625906
217	0x3d935bd8	0.07195252
218	0x3dede1be	0.116153225
219	0x3d9dead6	0.07710807
220	0x3c023910	0.007948175
221	0xbc654f50	-0.01399596
222	0x3c6be2f0	0.014397368
223	0xbd3d15ea	-0.046163477
224	0xbcd64710	-0.026156932
225	0x3d95a04e	0.07305966
226	0xbdd7c6e6	-0.10535984
227	0xbda73fd6	-0.081664726
228	0xbd0cd916	-0.034386717
229	0xbda4ecb7	-0.08052962
230	0xbdc52cfa	-0.09627719
231	0x3d81f7b8	0.06346077
232	0x3d6e1c9c	0.058132753
233	0x3d8c422e	0.0684856
234	0xbdba8fba	-0.09109445
235	0x3d22c738	0.03974077
236	0x3d8cf9c0	0.068835735
237	0x3cd62598	0.026140973
238	0xbd780d00	-0.060559273
239	0xbd6cbb1e	-0.057795636
240	0x3d90eae0	0.07076049
241	0x3d2f186c	0.0427479
242	0x3d07b8cc	0.03313522
243	0xbdc9fc4e	-0.098625764
244	0xbdebc246	-0.11511664
245	0x3dcf111a	0.10110684
246	0x3c03aee0	0.008037299
247	0x3ddf2c7c	0.108971566
248	0xbdfd7b18	-0.12376994
249	0xbd779b92	-0.060451098
250	0xbdf4b462	-0.11948468
251	0x3df48e84	0.11941245
252	0x3c9ba340	0.018998742
253	0x3d4efd54	0.05053456
254	0x3dca2e3c	0.098721
255	0x3bf8d280	0.007593453

Encoder_Layer_model.attention.V_linear.bias f4 [60]
0	0xbc652350	-0.01398547
1	0xbbe69a70	-0.0070374534
2	0xbdfb9561	-0.12284351
3	0x3d8c5df6	0.06853859
4	0x3d55c320	0.05218804
5	0x3d063fe4	0.032775775
6	0x3d688118	0.05676374
7	0xbde88491	-0.1135341
8	0x3e035ae5	0.12827642
9	0x3db0d992	0.08635248
10	0xbd1bbf22	-0.038024075
11	0x3d8b47f0	0.0680083
12	0xbd3c878a	-0.046027698
13	0xbd27ebbe	-0.040996306
14	0xbc0098d0	-0.007848933
15	0x3da348be	0.07972859
16	0x3d914b3c	0.07094428
17	0xbd367880	-0.04454851
18	0xbddacb1a	-0.1068327
19	0x3ac9c200	0.00153929
20	0xbd6091ba	-0.054826476
21	0xbc08e748	-0.008355923
22	0x3d864e02	0.065578476
23	0x3db07e6e	0.086178645
24	0x3bdf6520	0.006817475
25	0x3d58ab50	0.05289775
26	0x3cc1f0b8	0.023674354
27	0xbd70ac4a	-0.058758058
28	0x3d9d1e7e	0.076718315
29	0xbdb9675c	-0.09052917
30	0xbc1f9408	-0.009739883
31	0xbd65ac0c	-0.05607228
32	0x3c0f1670	0.008733377
33	0x3ddb5cde	0.107110724
34	0x3d2757a8	0.04085508
35	0xbc0af8a8	-0.008482136
36	0xbdf67341	-0.12033702
37	0xbdbc8242	-0.09204532
38	0xbcdb6fb8	-0.02678667
39	0xbd7e1c80	-0.0620389
40	0x3cd06cd8	0.025442526
41	0xbe025f5b	-0.12731688
42	0x3df61bda	0.12017031
43	0xbd2090e0	-0.039200664
44	0x3d9d8802	0.07691957
45	0x3dbdc540	0.09266138
46	0x3dd8337e	0.10556696
47	0xbcaf3240	-0.021386266
48	0x3b929b00	0.004474044
49	0x3d86f8a6	0.06590395
50	0xbdc503e8	-0.09619886
51	0xbc165300	-0.009175062
52	0x3d5e6d1c	0.054303274
53	0xbb3f28c0	-0.0029168576
54	0xbdbc3340	-0.09189463
55	0x3c9d3bc0	0.01919353
56	0xbcd93df8	-0.026518807
57	0x3da22fba	0.07919259
58	0xbdb83aff	-0.089956276
59	0x3c30be00	0.010787487
