models/saved_model.pth (torch, 707686 bytes, 57 tensors)

ebd_model.token_ebd.weight f4 [24, 60]
1.928103 1.4862107 0.8981738 -2.1075902 0.6763408 -1.2346852 -0.044685535 -1.6037126
-0.75006694 1.6488758 -0.39374387 -1.3982759 -0.7272114 -0.5616967 -0.76549757 0.76140845
1.6391447 -0.16065834 -0.50018823 0.44441387 -0.7565054 1.0798634 0.797623 1.6801622
1.282933 1.2922664 0.6121086 1.3358762 -0.23248598 0.041956235 -0.2515033 0.86050487
-1.3850659 -0.8679177 -0.22244097 1.7214841 0.31557092 -0.42298296 0.31062874 -0.7722573
-1.5533333 0.9923527 -0.8820439 -0.59656614 -1.2749473 2.1228228 -1.2372446 -0.48677903
-0.91600674 -0.66091764 0.07745401 0.5221039 -0.48966053 1.1908355 -0.8182673 -0.73264
-1.4023666 0.033064056 -0.06837949 0.67485327 -0.10431963 1.8380625 -1.1909319 1.3770126
1.4385495 0.8503265 2.2245178 0.51687187 0.34176612 -0.20010932 -1.048169 1.2845656
-0.16695386 0.517244 0.062921874 0.4309603 0.5730311 -0.6483192 -2.2129529 -0.74424577
0.016006682 -0.3322281 -1.3471048 -0.57879674 0.5427223 0.51806825 1.1473247 0.04517215
0.73744845 -0.47692943 -1.0438695 0.6105214 -1.7214502 -0.8212214 1.3411032 0.4901079
-2.5160997 0.49447685 0.7908577 0.03031177 0.64706194 0.5769282 1.0690726 -0.4435553
-0.17873922 0.75904757 0.39823136 0.18387452 0.26050702 1.2665782 -0.0048195524 -0.31012905
-1.4506377 -0.09765369 -0.60574675 0.47639894 0.73272336 0.08488098 -0.3955161 0.52139544
-0.010844912 0.24716023 0.13900474 0.7706132 1.1014671 0.34379578 0.713669 0.41430706
1.9276506 1.0182503 -1.4300504 -1.1235809 -0.14252701 1.6353903 0.6611406 0.5696935
1.1402224 0.015474801 -1.8070265 0.93191946 -0.36901847 1.0337592 -0.6803114 0.6304365
-0.97768426 0.95208013 1.6246152 1.4444985 0.2758867 -0.21631832 -0.72751987 0.09791815
0.34231755 0.9611977 -0.46318543 1.6020879 -2.4738 -0.4233332 -1.1916717 0.81860507
-1.8941383 0.22211821 0.018396279 -0.35217187 0.2805553 -0.73724866 0.1692193 -1.1004884
-1.6029562 1.3591443 1.2857606 0.058696665 -1.5487723 0.7503519 0.7692112 2.0328064
0.029577298 0.11865034 -0.81157786 -0.21066132 -0.9342831 -1.5952829 -1.1381099 -0.5252969
-0.52356607 -1.4976707 -1.9246364 0.12719025 1.0228724 -0.5558578 0.70495945 0.7150324
1.7765338 -0.9203591 0.9628098 -0.33507875 -1.1764339 0.35324222 0.4751667 1.356094
0.5241423 2.115555 -0.52025574 -0.9289039 0.18495537 1.0642674 1.308248 0.45962176
-0.8179268 -1.0185225 -0.4905596 -0.58870596 0.15576309 0.44127584 -0.14827205 -2.3156288
-0.39887375 1.0830867 -1.7813501 1.5084329 0.31297278 -0.5027971 1.0324363 1.6936255
-0.003910277 1.6686666 0.15251522 -1.057795 -0.57395744 0.07903071 0.39689574 1.9849818
-0.075319216 -0.9047786 -2.0491006 -1.0810423 0.020143494 0.07661635 0.18970402 0.40899003
-0.9354979 0.28264597 -0.54525983 0.45632723 -0.8741253 -0.033565838 -0.34685883 1.45753
1.2617995 -0.71736497 0.85640484 0.51941663 0.5460075 0.5591226 0.5118442 0.22864726
00000000: 14cc f63f 273c be3f b8ee 653f c2e2 06c0
00000010: ac24 2d3f 2a0a 9ebf 2e08 37bd 7446 cdbf
00000020: 6304 40bf 5d0e d33f cc98 c9be b4fa b2bf
00000030: 872a 3abf 5bcb 0fbf a6f7 43bf aaeb 423f
00000040: 7ecf d13f 9f83 24be 560c 00bf 378a e33e
00000050: 57aa 41bf f738 8a3f 0531 4c3f 8e0f d73f
00000060: 2637 a43f fc68 a53f 26b3 1c3f fefd aa3f
00000070: ce10 6ebe 4dda 2b3d 0ac5 80be 0c4a 5c3f
00000080: d749 b1bf db2f 5ebf 91c7 63be 9759 dc3f
00000090: 8392 a13e 3991 d8be bb0a 9f3e a8b2 45bf
000000a0: a0d3 c6bf d40a 7e3f a1cd 61bf 8fb8 18bf
000000b0: 7931 a3bf 54dc 0740 085e 9ebf 1a3b f9be
000000c0: 6b7f 6abf e631 29bf 35a0 9e3d 9aa8 053f
000000d0: c9b4 fabe 4c6d 983f f779 51bf 4c8e 3bbf
000000e0: c080 b3bf 2d6e 073d 8c0a 8cbd 2fc3 2c3f
000000f0: 88a5 d5bd a245 eb3f 7570 98bf f341 b03f
00000100: 6422 b83f ffae 593f 805e 0e40 b751 043f
00000110: f8fb ae3e 75e9 4cbe 672a 86bf a56c a43f
00000120: f4f5 2abe 1a6a 043f 2fdd 803d d4a6 dc3e
00000130: 2bb2 123f 3ff8 25bf 05a1 0dc0 e486 3ebf
00000140: 7220 833c cd19 aabe ee6d acbf 062c 14bf
00000150: d9ef 0a3f 1fa0 043f 89db 923f 6f06 393d
00000160: 6cc9 3c3f 1830 f4be 849d 85bf 214b 1c3f
00000170: 7b58 dcbf 913b 52bf 45a9 ab3f 6cef fa3e
00000180: c707 21c0 122c fd3e a675 4a3f 6450 f83c
00000190: daa5 253f 91b1 133f 5fd7 883f ae19 e3be
000001a0: 6a07 37be f150 423f fbe4 cb3e 9a49 3c3e
000001b0: 2d61 853e 3c1f a23f 56ed 9dbb 3cc9 9ebe
000001c0: 7fae b9bf a8fe c7bd 3812 1bbf 90ea f33e
000001d0: c293 3b3f 14d6 ad3d 1681 cabe 2c7a 053f
000001e0: dcae 31bc 9217 7d3e 4257 0e3e e846 453f
000001f0: e0fc 8c3f 0006 b03e 03b3 363f 0e20 d43e
00000200: 41bd f63f 0756 823f e40b b7bf 80d1 8fbf
00000210: 9af2 11be 7854 d13f 8340 293f 6fd7 113f
00000220: cff2 913f 058a 7d3c a54c e7bf 4692 6e3f
00000230: fdef bcbe 3952 843f e328 2ebf 4964 213f
00000240: 8449 7abf 86bb 733f 64f3 cf3f 54e5 b83f
00000250: 0641 8d3e 8d82 5dbe be3e 3abf 5089 c83d
00000260: 3f44 af3e 0d11 763f a426 edbe 3711 cd3f
00000270: bd52 1ec0 21bf d8be b388 98bf 1a90 513f
00000280: 2073 f2bf f572 633e cbb3 963c df4f b4be
00000290: f2a4 8f3e 54bc 3cbf d347 2d3e cedc 8cbf
000002a0: ab2d cdbf 71f8 ad3f ce93 a43f ea6b 703d
000002b0: 2c3e c6bf 1017 403f 06eb 443f 8019 0240
000002c0: 174c f23c f3fe f23d 91c3 4fbf 9ab7 57be
000002d0: 2d2d 6fbf 3b32 ccbf 96ad 91bf dc79 06bf
000002e0: 6d08 06bf acb3 bfbf 7c5a f6bf 293e 023e
000002f0: 7ced 823f b24c 0ebf 3978 343f 5d0c 373f
00000300: 7665 e33f a79c 6bbf b47a 763f 718f abbe
00000310: 6395 96bf 2adc b43e 0d49 f33e 7d94 ad3f
00000320: 312e 063f 4165 0740 7b2f 05bf a5cc 6dbf
00000330: f164 3d3e ea39 883f ac74 a73f 8b53 eb3e
00000340: a763 51bf f25e 82bf a12a fbbe 6fb5 16bf
00000350: 5c80 1f3e e8ee e13e a1d4 17be 4333 14c0
00000360: 2e39 ccbe 96a2 8a3f 4803 e4bf 5414 c13f
00000370: f83d a03e 50b7 00bf df26 843f b8c8 d83f
00000380: c821 80bb de96 d53f f32c 1c3e d465 87bf
00000390: e0ee 12bf dada a13d eb35 cb3e e213 fe3f
000003a0: f640 9abd 929f 67bf 7724 03c0 985f 8abf
000003b0: f803 a53c 08e9 9c3d c541 423e 2467 d13e
000003c0: ca7c 6fbf f9b6 903e 2696 0bbf b9a3 e93e
000003d0: adc6 5fbf 557c 09bd 7b97 b1be 5890 ba3f
000003e0: a582 a13f 3ba5 37bf 593d 5b3f 7df8 043f
000003f0: 26c7 0b3f a922 0f3f 3908 033f 8222 6a3e

ebd_model.seg_ebd.weight f4 [2, 60]
0.63863575 -0.43613836 -1.0022987 0.378029 0.042760365 0.5858651 -1.3687634 1.116851
0.27692536 1.0580255 -0.05147926 0.17128386 -0.21165164 -0.17876086 -0.84983116 1.1669768
-0.34847185 0.07418181 1.7575214 -0.6254484 0.20935999 1.5050285 -1.1346086 -0.7111839
1.3401062 1.5108956 -1.1984736 0.3766553 -0.2511277 -0.52773356 -0.47698525 -0.5625298
-1.0562596 0.24130821 0.1827537 0.62465245 -0.79397756 -0.6748352 -0.38768774 0.44965044
0.37261015 -1.9104947 0.26085028 1.4177611 0.6738032 1.4665507 -1.1077474 -0.7443782
1.0188978 -1.8317182 0.28062177 0.69092315 0.7183825 -0.5719326 -0.4666337 0.10176547
0.38033703 -1.9628861 -0.7805798 -0.13439532 -0.36093912 0.104627326 -0.325872 0.31892028
-0.109771885 0.09649706 -1.4932168 0.5237965 0.75306904 -0.22192167 0.58191013 -1.9369032
-1.5334482 -0.17965703 -0.6577823 -1.2317393 -1.2463988 -1.4996419 -0.54039687 1.2409896
-1.6212294 -0.903596 1.3967916 0.9178157 0.5120383 -0.8405776 -1.044521 0.55477244
-0.9492566 1.0457416 -1.1297554 -2.8005562 1.2796905 0.21999855 0.32490954 1.3190074
-0.84967965 -0.6987038 -0.20516235 -0.78116643 0.68727237 0.7835897 -1.1108732 -3.106328
-1.4471426 -1.6966946 -2.1704893 -0.3568726 -0.6434195 0.27729386 -0.86625546 -1.3693594
0.10004823 -0.24852113 -0.91255456 -0.8421811 0.9057887 0.88845426 -0.79284376 0.5342488
00000000: a27d 233f 874d dfbe 534b 80bf 048d c13e
00000010: 7e25 2f3d 41fb 153f a433 afbf f9f4 8e3f
00000020: 29c9 8d3e 616d 873f ebdb 52bd 0965 2f3e
00000030: 35bb 58be 160d 37be 898e 59bf 7f5f 953f
00000040: e76a b2be a2ec 973d 76f6 e03f 631d 20bf
00000050: 7762 563e c6a4 c03f db3a 91bf 2610 36bf
00000060: 9a88 ab3f 0765 c13f 9567 99bf f7d8 c03e
00000070: cf93 80be 8c19 07bf 6937 f4be f401 10bf
00000080: 8433 87bf 8019 773e c923 3b3e 39e9 1f3f
00000090: 1d42 4bbf 00c2 2cbf 027f c6be 9538 e63e
000000a0: c2c6 be3e 178b f4bf 2b8e 853e 3279 b53f
000000b0: 5e7e 2c3f efb7 bb3f abca 8dbf 928f 3ebf
000000c0: 3e6b 823f be75 eabf a8ad 8f3e 57e0 303f
000000d0: eae7 373f 2d6a 12bf 9dea eebe 6a6a d03d
000000e0: 89bb c23e da3f fbbf 14d4 47bf ed9e 09be
000000f0: 03cd b8be da46 d63d b2d8 a6be 8549 a33e
00000100: 15d0 e0bd 40a0 c53d ba21 bfbf 8717 063f
00000110: 22c9 403f 6f3f 63be 10f8 143f 72ec f7bf
00000120: 0848 c4bf 03f8 37be 6c64 28bf a2a9 9dbf
00000130: ff89 9fbf 44f4 bfbf 7357 0abf bfd8 9e3f
00000140: 7284 cfbf 1152 67bf 11ca b23f f8f5 6a3f
00000150: f114 033f 1830 57bf ddb2 85bf 9105 0e3f
00000160: 7b02 73bf dcda 853f d39b 90bf 503c 33c0
00000170: e6cc a33f 4d47 613e 8b5a a63e 3cd5 a83f
00000180: 9b84 59bf 41de 32bf 1416 52be 86fa 47bf
00000190: 15f1 2f3f 5699 483f 1831 8ebf 14ce 46c0
000001a0: f83b b9bf 4a2d d9bf 4ce9 0ac0 01b8 b6be
000001b0: 24b7 24bf 76f9 8d3e ebc2 5dbf 2b47 afbf
000001c0: 16e6 cc3d 537c 7ebe 2d9d 69bf 2e99 57bf
000001d0: c5e1 673f bd71 633f cff7 4abf 88c4 083f

ebd_model.pos_ebd.weight f4 [182, 60]
-0.7966385 0.5245619 -1.1543536 -1.0162761 -0.49997368 0.78405505 -0.040265057 0.4167709
-0.041184183 -1.4792306 -0.2324046 -0.25613344 -0.5897817 -0.7283224 0.39936334 -1.3220795
1.3172287 -0.0029609485 1.4229499 -0.6135549 -0.8935877 0.47978956 -0.24176997 -1.3157128
0.45185745 -0.6097866 0.46810582 0.24323218 -0.16421498 -0.62011933 0.5408298 -1.6707832
-1.1357383 -1.6578145 1.2278591 -1.1892456 0.49237272 -0.40815505 0.12363832 -0.16656956
0.67543143 0.65267175 -0.091754526 0.95119137 0.4464228 0.40487877 -2.415201 -0.5181447
-1.4801615 -0.7235414 0.99904215 0.20225368 1.5249523 -1.5991591 0.68361455 -0.47283864
1.6399885 -0.6956285 1.2808667 0.14352317 0.1891019 -0.27967948 -1.7330563 -0.50660884
-1.095203 1.3838053 -0.63906246 -0.21915899 -0.49000505 0.1488025 0.9792418 0.41311502
-0.5398921 0.5505068 0.07473449 1.2429605 -0.84002054 0.7541097 -2.0875704 0.27608213
1.6776347 -0.4991869 0.95342875 0.58257043 -1.0158632 -0.7042022 0.05333977 -0.6799537
0.6600911 -0.1532479 1.4073666 -0.59547573 -0.57884115 0.7475097 1.8599423 -1.3009824
-0.40710157 -1.5488967 1.149537 1.3619347 -1.2421627 -0.01928833 1.9426436 -0.9154077
0.5294335 0.54762185 -1.2908517 -1.2016817 -0.6521057 -0.3513208 0.4256561 -0.007853452
-0.3128771 -0.4969549 -0.49216664 -0.4960879 0.9156207 -0.63120383 0.65986514 -0.032494463
-0.12443342 -1.4126805 0.2792227 0.72592455 1.710837 -2.681722 -0.035887796 0.70201916
-1.0073862 -0.5345742 1.2510065 0.5828838 -0.9708059 -1.5398761 0.79671043 -0.5061452
1.2849098 -1.5698928 -1.7566068 0.92209876 -0.7102402 1.2930411 -1.6597831 3.1505024
-1.0157675 0.16147102 -0.039237153 0.37194663 -0.046387903 -1.204564 -1.693405 -0.47569913
-0.70424914 1.7823324 0.2876661 -0.16211134 -0.7531775 1.4071617 -0.853668 -0.34242386
0.9029155 0.3040002 -0.44709352 1.8896747 -1.2975564 -1.226678 0.8472066 1.6428684
-1.0393984 -0.84307593 -0.5057242 -0.101911046 0.015247776 -0.9681496 -0.13892502 -0.1510932
0.4700383 0.69102687 1.5118593 -0.92139816 2.2573926 -0.3617679 -1.086384 1.9819026
0.689489 2.347028 0.041159105 0.5826374 0.67427313 0.63847995 -1.5286784 -2.6093478
-1.6669451 0.9169291 -0.016708877 0.48210967 0.3724033 -1.0537426 2.5386202 -1.1506988
0.46963227 1.4613214 1.5613701 0.4295998 -0.26702023 0.5971207 0.96561193 -0.39894375
1.1927669 0.9957551 -1.4708018 -0.036518946 -0.11112002 0.3912807 0.8744077 -0.20527229
0.34567708 -0.39257053 0.36308116 1.7175653 0.22283535 0.32337114 -0.7174609 0.17629498
0.51999956 0.13186868 -1.7589555 0.77954984 -0.10094801 0.8970079 -0.7698473 1.3228112
-0.45977575 0.48726234 -0.2704352 0.7235217 1.0818446 -0.36610582 -0.031843297 -0.15439129
0.20058717 -0.4955033 0.23805878 1.9163994 -0.21728738 1.1228538 -0.82751447 -1.3260702
-1.016549 0.5325508 -0.61787075 1.4326427 0.43642068 -1.258252 -1.1297466 0.5897702
00000000: 80f0 4bbf b049 063f dcc1 93bf 5615 82bf
00000010: 8dfc ffbe d5b7 483f f9ec 24bd ff62 d53e
00000020: bfb0 28bd 6e57 bdbf 79fb 6dbe ec23 83be
00000030: effb 16bf 5673 3abf 5a79 cc3e e739 a9bf
00000040: f39a a83f 790c 42bb 3923 b63f ef11 1dbf
00000050: 2ac2 64bf faa6 f53e 8c92 77be 4769 a8bf
00000060: dc59 e73e fa1a 1cbf 91ab ef3e db11 793e
00000070: f927 28be 24c0 1ebf d273 0a3f 39dc d5bf
00000080: df5f 91bf 4433 d4bf 7d2a 9d3f 3339 98bf
00000090: 4718 fc3e b3f9 d0be 1636 fd3d 3691 2abe
000000a0: 13e9 2c3f 7f15 273f cce9 bbbd 4781 733f
000000b0: 8791 e43e 454c cf3e a792 1ac0 22a5 04bf
000000c0: ef75 bdbf 023a 39bf 3ac1 7f3f 971b 4f3e
000000d0: a331 c33f 3fb1 ccbf 5d01 2f3f e817 f2be
000000e0: 25eb d13f b614 32bf 71f3 a33f bdf7 123e
000000f0: eea3 413e 2632 8fbe cad4 ddbf 1eb1 01bf
00000100: 9d2f 8cbf 8820 b13f 9999 23bf 376b 60be
00000110: f1e1 fabe af5f 183e 97af 7a3f d083 d33e
00000120: 5e36 0abf 03ee 0c3f 650e 993d 5419 9f3f
00000130: 960b 57bf 550d 413f c19a 05c0 a35a 8d3e
00000140: bcbc d63f 6d95 ffbe e813 743f 5623 153f
00000150: ce07 82bf 9846 34bf cd7a 5a3d 7211 2ebf
00000160: bbfb 283f 04ed 1cbe 9724 b43f 1971 18bf
00000170: ef2e 14bf cc5c 3f3f 9712 ee3f 9786 a6bf
00000180: 9e6f d0be 3f42 c6bf 0724 933f e053 ae3f
00000190: 30ff 9ebf 8f02 9ebc 8ca8 f83f 2958 6abf
000001a0: f488 073f f230 0c3f a13a a5bf b5d0 99bf
000001b0: 66f0 26bf 52e0 b3be 99ef d93e c4ab 00bc
000001c0: 6d31 a0be df70 febe 44fd fbbe 3cff fdbe
000001d0: 1e66 6a3f 9396 21bf ecec 283f ea18 05bd
000001e0: f3d6 febd b7d2 b4bf 47f6 8e3e 31d6 393f
000001f0: b5fc da3f 55a1 2bc0 15ff 12bd 87b7 333f
00000200: 08f2 80bf dbd9 08bf fb20 a03f df37 153f
00000210: bc86 78bf a91a c5bf 37f5 4b3f bb92 01bf
00000220: ed77 a43f 3ff2 c8bf 7ed8 e0bf aa0e 6c3f
00000230: 4dd2 35bf 5f82 a53f c673 d4bf d5a1 4940
00000240: ab04 82bf a958 253e 23b7 20bd ca6f be3e
00000250: 3e01 3ebd 272f 9abf 7fc1 d8bf d68e f3be
00000260: ac49 34bf 7823 e43f f948 933e 8400 26be
00000270: 3ed0 40bf e01d b43f fc89 5abf 2e52 afbe
00000280: 7825 673f eaa5 9b3e 71e9 e4be dce0 f13f
00000290: 5416 a6bf c903 9dbf 88e2 583f 8349 d23f
000002a0: 020b 85bf d3d3 57bf 2477 01bf bdb6 d0bd
000002b0: cfd1 793c a7d8 77bf 5c42 0ebe 2db8 1abe
000002c0: dca8 f03e 23e7 303f 9b84 c13f c0e0 6bbf
000002d0: 1f79 1040 a439 b9be a20e 8bbf fcae fd3f
000002e0: 5a82 303f b535 1640 7396 283d ba27 153f
000002f0: 2a9d 2c3f 6c73 233f bcab c3bf 8eff 26c0
00000300: 755e d5bf debb 6a3f 0ee1 88bc 14d7 f63e
00000310: a5ab be3e 0ae1 86bf c178 2240 194a 93bf
00000320: a473 f03e 940c bb3f fada c73f 81f4 db3e
00000330: e0b6 88be e7dc 183f 5832 773f 5b42 ccbe
00000340: 96ac 983f cee9 7e3f 3c43 bcbf e494 15bd
00000350: e592 e3bd f255 c83e 2fd9 5f3f e632 52be
00000360: 96fc b03e 01ff c8be c6e5 b93e 2ed9 db3f
00000370: f32e 643e e790 a53e 84ab 37bf ac86 343e
00000380: b11e 053f 9508 073e 7425 e1bf 9490 473f
00000390: d5bd cebd 4fa2 653f b614 45bf e151 a93f
000003a0: ba67 ebbe 737a f93e 7c76 8abe b838 393f
000003b0: e279 8a3f 3972 bbbe 1e6e 02bd c018 1ebe
000003c0: b966 4d3e 9cb2 fdbe aec5 733e 934c f53f
000003d0: 9580 5ebe acb9 8f3f fdd7 53bf abbc a9bf
000003e0: 471e 82bf 4055 083f c72c 1ebf d660 b73f
000003f0: 8872 df3e 670e a1bf 899b 90bf 2efb 163f

ebd_model.norm.weight f4 [60]
0.99701893 1.0038054 0.99432975 0.9935154 1.0053362 0.9952619 0.99445957 1.0038488
0.99691623 0.99391586 0.9936142 1.0065417 1.0064642 1.0003424 1.0063194 1.0064235
0.9989351 1.0063018 1.006474 1.0058377 0.9936807 0.99365455 0.9942726 1.0062771
1.0062219 0.99356216 1.0053862 0.9936763 1.002256 0.9990399 0.9946733 1.0064181
1.0064455 1.0026088 1.0029593 1.0063564 0.993932 1.0064311 0.9980961 1.0063932
0.99364716 0.9935524 0.99808395 0.9935749 0.99380755 1.0063894 1.0055547 1.000267
1.0005236 0.9991515 0.9971501 1.0065346 0.99634254 1.0063006 0.9996615 1.0062219
0.9940265 1.0015415 0.9946023 1.0049449
00000000: a23c 7f3f b27c 803f 658c 7e3f 0657 7e3f
00000010: dbae 803f 7cc9 7e3f e794 7e3f 1e7e 803f
00000020: e735 7f3f 4571 7e3f 805d 7e3f 5cd6 803f
00000030: d2d3 803f 380b 803f 13cf 803f 7cd2 803f
00000040: 36ba 7f3f 7fce 803f 24d4 803f 4abf 803f
00000050: dc61 7e3f 2560 7e3f a688 7e3f b0cd 803f
00000060: e1cb 803f 175a 7e3f 7fb0 803f 9261 7e3f
00000070: ed49 803f 14c1 7f3f e9a2 7e3f 4fd2 803f
00000080: 35d3 803f 7c55 803f f860 803f 49d0 803f
00000090: 5472 7e3f bcd2 803f 3a83 7f3f 7ed1 803f
000000a0: a95f 7e3f 7359 7e3f 6e82 7f3f ed5a 7e3f
000000b0: 2c6a 7e3f 5ed1 803f 04b6 803f c008 803f
000000c0: 2811 803f 65c8 7f3f 3b45 7f3f 20d6 803f
000000d0: 4e10 7f3f 75ce 803f d1e9 7f3f e1cb 803f
000000e0: 8578 7e3f 8332 803f 429e 7e3f 09a2 803f

ebd_model.norm.bias f4 [60]
-0.006370875 0.0061158324 0.0057605333 0.0036613985 0.0061482876 -0.006381733 0.00324911 -0.004349952
0.0013121839 0.0062367176 0.006391979 0.0064827097 -0.006494343 -0.004763534 0.006409038 -0.003717343
0.000322511 -0.006523581 -0.0065450114 0.0065002874 0.006142757 0.0063219876 -0.0021930835 -0.0062626605
0.00373382 -0.0064601493 0.0063775573 -0.005840678 0.006342366 -0.005833883 0.0012496172 -0.006105595
-0.006473354 -0.00245517 0.006434806 0.0063233543 0.0060906177 -0.00603879 0.0036330156 0.005876611
0.0064455266 -0.0064614736 -0.00620965 -5.4979013e-05 -0.005624118 -0.0063524693 -0.006195858 -0.0064320145
-0.002092873 0.0022026664 -0.006542768 0.00628216 -0.0011063331 -0.0061797486 -0.0065369275 0.006301925
0.0024015196 -0.00071801816 -0.0063085402 -0.0059326943
00000000: c6c2 d0bb 5267 c83b dbc2 bc3b 13f4 6f3b
00000010: 9377 c93b db1d d1bb 05ef 543b 0b8a 8ebb
00000020: 96fd ab3a 615d cc3b ce73 d13b e96c d43b
00000030: 7fce d4bb 6b17 9cbb e802 d23b ab9e 73bb
00000040: b216 a939 c4c3 d5bb 8977 d6bb 5d00 d53b
00000050: 2e49 c93b ad28 cf3b d6b9 0fbb 0137 cdbb
00000060: 1bb3 743b a9af d3bb d4fa d03b 2863 bfbb
00000070: 9fd3 cf3b 282a bfbb 32ca a33a 7111 c8bb
00000080: 6e1e d4bb ebe6 20bb 11db d23b 2434 cf3b
00000090: ce93 c73b 0be1 c5bb e317 6e3b 9690 c03b
000000a0: ff34 d33b c5ba d3bb 527a cbbb 4499 66b8
000000b0: 854a b8bb 6028 d0bb a006 cbbb a6c3 d2bb
000000c0: 9528 09bb 9c5a 103b b764 d6bb 94da cd3b
000000d0: 6102 91ba 7d7f cabb b933 d6bb 6180 ce3b
000000e0: d062 1d3b 6239 3cba dfb7 cebb 0c67 c2bb

Encoder_Layer_model.attention.Q_linear.weight f4 [60, 60]
0.029213607 0.104771584 0.09128061 -0.047378182 -0.105713055 0.034003645 -0.08817425 -0.12839448
0.0886516 -0.10699983 0.12742548 -0.11893443 -0.105117835 0.07422347 0.009961426 -0.056268983
0.049002424 -0.083879635 -0.071156755 -0.12432916 -0.06612877 -0.110885665 0.110623404 -0.05612258
0.021903932 -0.058025733 -0.029576652 0.09430893 0.02627401 0.06233163 0.042182595 -0.105218604
0.07753138 0.10459922 0.038581997 0.10283981 -0.06151261 -0.08446574 -0.1036928 -0.020412996
-0.01276736 -0.07337899 -0.044150487 -0.04157526 0.12450732 -0.009219058 0.104660526 0.012435958
0.046002716 0.074394986 -0.118826136 -0.05819139 -0.09811447 0.12541573 0.047375783 -0.054109447
-0.09735596 0.071491614 0.029966742 -0.06351308 -0.09369336 -0.06737432 0.031437606 -0.1086951
-0.013622977 0.076625854 0.06895591 0.013933241 0.01371628 0.03016445 0.05042015 0.10189487
0.03506729 0.07097083 0.08999179 -0.10014502 -0.06890587 0.070880756 0.025865167 -0.07452035
0.03814903 -0.1173638 -0.04803521 0.065100014 -0.0034016669 -0.08724346 0.06381367 0.008971259
-0.018475547 -0.12415624 -0.046568356 0.014258727 -0.070156395 0.021726564 -0.09170998 0.0996186
0.09940967 0.07604027 -0.015336834 -0.12865172 -0.050410353 -0.010458775 -0.11898537 0.101639524
0.036747992 0.09794469 -0.115503505 -0.06628524 0.02909568 -0.001967445 -0.07508208 0.0943954
0.05323933 -0.0061561093 0.12303139 -0.12590481 -0.11726415 0.025747105 0.11716078 0.072982624
-0.071043074 0.092620015 0.06707741 0.0073387623 0.08167733 0.025548697 0.00016954541 -0.035745747
-0.06858815 -0.0813788 -0.01697082 -0.088288814 0.05471696 0.03645529 -0.12587188 -0.09496133
0.09225905 -0.067679785 -0.0013315082 -0.082689434 -0.02823484 0.06367077 0.032813653 0.063365966
-0.0075169727 -0.10300402 -0.0016247928 0.07653731 0.030197352 0.026699424 0.025419757 0.1059245
0.06512673 -0.021114834 -0.070041224 0.1050517 -0.06716241 -0.086302154 0.040327415 -0.08243952
-0.11139633 -0.10454068 0.031834453 -0.08112661 0.11420506 -0.005180903 -0.054829784 -0.079162285
-0.03859444 0.112627655 -0.082407676 -0.11953085 0.038411558 0.04377669 -0.10938107 -0.05794923
0.11190127 -0.06102281 0.054165617 -0.06197103 -0.11397028 -0.12453771 0.0984765 0.039578125
0.036714524 0.044433966 0.049753234 0.08522874 0.09904654 0.0995525 0.04148431 0.023055822
0.02771452 -0.10456245 0.057561338 0.031837136 0.056116223 -0.031856306 0.10722934 0.015508428
-0.03060083 -0.0036491156 -0.051529042 -0.018968657 0.10957347 0.042822883 -0.0144286975 0.004875347
0.029489964 -0.07450425 -0.07081169 0.113835335 0.0007034987 0.038422942 -0.059410065 -0.09489559
0.025610134 0.06972836 -0.12159371 -0.12768218 -0.043055728 0.0834866 -0.115353994 0.1031397
0.11675133 -0.028972812 0.008246303 -0.005331889 0.1257764 0.014346361 0.031545132 -0.044172727
-0.0015767962 -0.068462454 0.0064905584 -0.01791408 0.024061754 0.025098875 -0.10562887 0.08624999
0.07101229 0.09094018 0.09507577 0.033310592 0.07057342 0.063633606 0.07697354 -0.07774331
0.061167464 -0.010343768 0.049935445 0.047455564 -0.09622832 -0.05872888 -0.091906205 -0.03432285
00000000: 6051 ef3c 7c92 d63d 54f1 ba3d a00f 42bd
00000010: 1680 d8bd 6847 0b3d b494 b4bd d879 03be
00000020: f88e b53d ba22 dbbd d37b 023e e593 f3bd
00000030: 0548 d7bd 7a02 983d 4035 233c 4e7a 66bd
00000040: c4b6 483d 16c9 abbd a2ba 91bd 49a0 febd
00000050: 856e 87bd 0618 e3bd 868e e23d cae0 65bd
00000060: e06f b33c 64ac 6dbd bc4a f2bc 0a25 c13d
00000070: 983c d73c 744f 7f3d a8c7 2c3d da7c d7bd
00000080: c6c8 9e3d 1e38 d63d 2808 1e3d ae9d d23d
00000090: a6f4 7bbd 60fc acbd e45c d4bd 2839 a7bc
000000a0: 302e 51bc b947 96bd 24d7 34bd d24a 2abd
000000b0: b2fd fe3d 880b 17bc 4258 d63d 30c0 4b3c
000000c0: 586d 3c3d 665c 983d 1e5b f3bd 185a 6ebd
000000d0: 3df0 c8bd fb6c 003e 1c0d 423d dea1 5dbd
000000e0: 9062 c7bd 326a 923d d07c f53c 2513 82bd
000000f0: 4ee2 bfbd 8cfb 89bd b8c4 003d 899b debd
00000100: e832 5fbc 04ee 9c3d c238 8d3d 4048 643c
00000110: 40ba 603c 701b f73c 5c85 4e3d 42ae d03d
00000120: b8a2 0f3d 2859 913d 9e4d b83d d518 cdbd
00000130: 851e 8dbd ee29 913d 30e3 d33c 209e 98bd
00000140: 2842 1c3d 6f5c f0bd 92c0 44bd 2853 853d
00000150: 80ee 5ebb b3ac b2bd beb0 823d 30fc 123c
00000160: 085a 97bc a045 febd 76be 3ebd 709d 693c
00000170: 28ae 8fbd e8fb b13c 71d2 bbbd d604 cc3d
00000180: 4c97 cb3d 00bb 9b3d 5847 7bbc 47bd 03be
00000190: 167b 4ebd 485b 2bbc 9aae f3bd 6228 d03d
000001a0: 1085 163d 3a97 c83d 1a8d ecbd 8ec0 87bd
000001b0: 105a ee3c 40f0 00bb a2c4 99bd 6052 c13d
000001c0: 7c11 5a3d 30b9 c9bb e2f7 fb3d 31ed 00be
000001d0: 3028 f0bd 98eb d23c fef1 ef3d ea77 953d
000001e0: 087f 91bd 90af bd3d e25f 893d 007a f03b
000001f0: 7246 a73d 804b d13c 00c8 3139 226a 12bd
00000200: f277 8cbd eea9 a6bd 6406 8bbc c4d0 b4bd
00000210: e41e 603d 2452 153d 8fe4 00be 167b c2bd
00000220: 50f2 bc3d b39b 8abd 0086 aeba 1459 a9bd
00000230: c04c e7bc d265 823d 9c67 063d 04c6 813d
00000240: f050 f6bb c6f3 d2bd 00f7 d4ba 98bf 9c3d
00000250: 7060 f73c c0b8 da3c 183d d03c f2ee d83d
00000260: 2a61 853d 04f9 acbc c671 8fbd 5825 d73d
00000270: 728c 89bd 2fbf b0bd 5c2e 253d 0dd6 a8bd
00000280: c223 e4bd 6d19 d6bd d864 023d b525 a6bd
00000290: 58e4 e93d 90c4 a9bb 3295 60bd d61f a2bd
000002a0: 3415 1ebd 54a9 e63d 5bc5 a8bd 97cc f4bd
000002b0: 7055 1d3d 304f 333d 2f03 e0bd 2c5c 6dbd
000002c0: 7e2c e53d 0ef3 79bd c4dc 5d3d 56d5 7dbd
000002d0: 4069 e9bd a00d ffbd 0cae c93d ac1c 223d
000002e0: f861 163d 6400 363d 0cca 4b3d 688c ae3d
000002f0: ead8 ca3d 2ee2 cb3d 74eb 293d 90df bc3c
00000300: 9009 e33c d624 d6bd 70c5 6b3d a867 023d
00000310: 20da 653d c27b 02bd 0e9b db3d 1017 7e3c
00000320: 98ae fabc 0026 6fbb 1e10 53bd 2864 9bbc
00000330: 0e68 e03d 0c67 2f3d 5866 6cbc 60c1 9f3b
00000340: f094 f13c af95 98bd b805 91bd 8022 e93d
00000350: 006b 383a 6061 1d3d f857 73bd 9e58 c2bd
00000360: 58cc d13c becd 8e3d 1f06 f9bd 1ebf 02be
00000370: 345b 30bd 06fb aa3d b73e ecbd e83a d33d
00000380: 521b ef3d 6458 edbc 801b 073c 20b7 aebb
00000390: 87cb 003e 000d 6b3c 7835 013d 76ee 34bd
000003a0: 80ac ceba 0b36 8cbd c0ae d43b 8cc0 92bc
000003b0: 281d c53c 289c cd3c f353 d8bd d6a3 b03d
000003c0: e46e 913d d83e ba3d 16b7 c23d b070 083d
000003d0: cc88 903d 5652 823d 4ea4 9d3d e237 9fbd
000003e0: bc8a 7a3d e878 29bc 1c89 4c3d c460 423d
000003f0: 5a13 c5bd b28d 70bd 5239 bcbd 1e96 0cbd

Encoder_Layer_model.attention.Q_linear.bias f4 [60]
-0.104297325 0.102956995 -0.121894486 0.012924582 -0.11724913 0.10571408 -0.05986193 -0.082928315
0.060511768 -0.027683958 0.08322714 0.120502844 0.091775686 0.016077071 -0.010799088 -0.092490494
-0.07559736 -0.07681151 0.07827759 0.005367011 -0.085676014 0.11614153 -0.040752575 0.12674366
0.12279798 0.022304505 -0.10582714 0.042547256 0.002794817 -0.063492715 -0.07725508 -0.08993928
0.019931838 0.0538581 0.021773249 0.074703544 -0.047134474 -0.046559967 0.1263882 -0.09788548
-0.11895296 0.12563036 0.08000676 -0.02159392 0.0394731 -0.040626608 -0.01788529 0.017897412
-0.044351004 0.009069338 -0.04849872 -0.1068485 0.060188487 -0.09471899 -0.12613223 0.025544822
0.09445207 0.044815794 -0.09134753 0.07775277
00000000: d699 d5bd 1edb d23d d1a3 f9bd a0c1 533c
00000010: 5020 f0bd a080 d83d c831 75bd 52d6 a9bd
00000020: 30db 773d 78c9 e2bc fe72 aa3d 32ca f63d
00000030: e4f4 bb3d 10b4 833c a8ee 30bc a86b bdbd
00000040: cad2 9abd 5a4f 9dbd 0050 a03d c0dd af3b
00000050: e876 afbd 9cdb ed3d 2cec 26bd 17c9 013e
00000060: 827d fb3d f0b7 b63c e6bb d8bd 0846 2e3d
00000070: 4029 373b 7808 82bd e937 9ebd 1632 b8bd
00000080: 1848 a33c 509a 5c3d d05d b23c 2cfe 983d
00000090: 1410 41bd aab5 3ebd e96b 013e 2f78 c8bd
000000a0: 9c9d f3bd 3fa5 003e 96da a33d bce5 b0bc
000000b0: 8cae 213d 1668 26bd 2c84 92bc 989d 923c
000000c0: 66a9 35bd 9097 143c 98a6 46bd 63d3 dabd
000000d0: 3488 763d 08fc c1bd cf28 01be 6043 d13c
000000e0: 1670 c13d c490 373d 6a14 bbbd d83c 9f3d

Encoder_Layer_model.attention.K_linear.weight f4 [60, 60]
-0.03737937 -0.015950441 0.07685912 0.050733894 -0.045511477 0.078438744 -0.03440132 -0.03472165
0.08903788 -0.029200643 -0.0025813282 0.120776415 0.12417857 0.030402899 0.0970965 -0.01821135
-0.059407137 0.120752335 0.06774829 0.08826342 -0.06250418 0.06757662 0.10567528 0.0123502165
0.086049184 -0.11713922 0.051056877 -0.031884037 0.117307276 0.046599388 0.12783466 -0.044877134
0.011872798 0.09189725 -0.09336434 -0.045028336 -0.10330453 -0.09692463 0.057181403 -0.038990118
0.08442384 0.011918768 0.045465216 0.013745531 -0.12098639 -0.019465193 -0.07089692 -0.05114182
0.10387702 -0.099897735 -0.09426348 -0.041400596 -0.05729393 0.031865746 0.08283755 0.02026014
0.0022735894 0.062009573 0.07709433 0.0045396537 -0.087177396 -0.11186564 0.12883146 0.041988716
0.11819233 -0.04955008 0.03549601 -0.06798352 -0.06796527 -0.059075028 0.12902637 0.09412317
-0.079447925 -0.09107189 0.04258299 -0.03044182 0.006174043 0.016483113 -0.11304132 0.028514773
-0.0011280775 -0.09035355 -0.1276699 0.065918684 -0.11805131 -0.05815784 0.07846981 -0.08602409
-0.061139703 -0.081345916 0.075994864 0.039941296 0.013324469 0.04545641 0.03693472 -0.027276434
-0.01189822 -0.08080798 -0.060639404 0.001992464 -0.015667565 0.032499373 0.06127587 0.09903228
0.12370421 -0.009811677 0.05090435 -0.10455917 0.074714065 -0.034518637 -0.10243916 -0.100519195
-0.10763069 -0.05962877 0.058949366 -0.10529816 -0.015237428 -0.020063385 0.047488302 -0.052628785
0.06540364 -0.07983822 0.075855836 -0.12863956 -0.087923616 0.045281842 0.019810677 0.0904292
0.06724137 -0.10757358 0.10153653 -0.033502065 -0.024381854 -0.054958366 -0.022385232 -0.1205299
0.009981349 0.097276464 -0.025802948 0.099268764 -0.05834341 0.05214773 0.01276353 -0.05010534
0.12585567 0.010611564 0.005748406 -0.013946004 -0.006994322 0.10407409 -0.019648269 0.07752681
0.046822056 0.084199235 -0.09784438 -0.113126256 -0.042389594 -0.036037914 0.123010084 0.12720914
-0.030782811 -0.061857387 -0.0005453825 0.04941 0.04412335 0.02436909 0.09481421 0.013723314
0.104460955 0.031447917 -0.011476383 0.107482135 0.0041974783 0.00515157 -0.024949938 0.075827256
-0.038281165 0.100715995 0.06892495 -0.0020703673 -0.021164514 0.050586566 -0.12606503 -0.04269992
-0.045633435 -0.015814997 -0.06177967 -0.055761285 0.0613928 -0.0136839375 -0.08947697 -0.009325847
0.041684374 -0.052303404 0.10983953 -0.089616574 0.11240734 0.0496929 -0.074203715 -0.12221872
0.050359637 -0.024071947 0.038251474 0.05512467 -0.08752479 0.015174076 -0.027515441 -0.11624341
0.022776902 0.027591497 -0.09875878 0.1214294 0.06769818 0.07339385 -0.11249027 -0.11154822
0.055767655 0.07455468 -0.11071708 0.12397288 -0.028449945 -0.10466165 -0.09471439 -0.02995187
0.06794126 -0.08903831 0.095118806 0.12901227 0.12135978 0.058764026 -0.05273767 -0.049077623
0.09269594 -0.026961483 0.01975435 0.12903951 -0.12833162 -0.029480174 -0.05103846 -0.020897448
0.0053177327 -0.027964719 0.12532212 0.052355424 -0.08111215 0.12509422 -0.03583236 0.018589944
0.012051165 -0.09489004 0.06568129 -0.078432366 -0.115016066 0.10836667 0.077302784 -0.05403816
00000000: 1c1b 19bd 80aa 82bc 5068 9d3d 58ce 4f3d
00000010: 3e6a 3abd 7ea4 a03d 66e8 0cbd 4a38 0ebd
00000020: 7e59 b63d 3036 efbc 802b 29bb a059 f73d
00000030: 5651 fe3d 800f f93c 88da c63d f82f 95bc
00000040: e654 73bd 004d f73d 9ebf 8a3d 74c3 b43d
00000050: 3102 80bd 9c65 8a3d 486c d83d 9058 4a3c
00000060: 8e3a b03d b0e6 efbd 0421 513d d698 02bd
00000070: cc3e f03d 00df 3e3d 17e7 023e 16d1 37bd
00000080: 2086 423c a034 bc3d ce35 bfbd a26f 38bd
00000090: 5391 d3bd 6c80 c6bd 0c37 6a3d 1ab4 1fbd
000000a0: 68e6 ac3d f046 433c bc39 3a3d f034 613c
000000b0: b6c7 f7bd 7875 9fbc 6832 91bd 167a 51bd
000000c0: 7abd d43d 2f97 ccbd 360d c1bd ac93 29bd
000000d0: 0aad 6abd a885 023d bca6 a93d 98f8 a53c
000000e0: 8000 153b c0fd 7d3d a2e3 9d3d 60c1 943b
000000f0: 108a b2bd d019 e5bd 65ec 033e 5cfc 2b3d
00000100: d20e f23d 06f5 4abd 4464 113d f23a 8bbd
00000110: 6031 8bbd a8f8 71bd 7d1f 043e a6c3 c03d
00000120: 98b5 a2bd e683 babd 806b 2e3d 2061 f9bc
00000130: a04f ca3b 9807 873c 3582 e7bd d097 e93c
00000140: 00dc 93ba 480b b9bd e6bb 02be 6000 873d
00000150: e3c4 f1bd ea36 6ebd c8b4 a03d 662d b0bd
00000160: a06d 7abd b098 a6bd 32a3 9b3d 7c99 233d
00000170: e04e 5a3c 8030 3a3d dc48 173d d472 dfbc
00000180: c0f0 42bc a77e a5bd 0661 78bd 0094 023b
00000190: 4459 80bc 101e 053d 68fc 7a3d 70d1 ca3d
000001a0: a258 fd3d 28c1 20bc 1481 503d 1e23 d6bd
000001b0: b003 993d 6a63 0dbd 9fcb d1bd 02dd cdbd
000001c0: 7b6d dcbd 4c3d 74bd e474 713d 90a6 d7bd
000001d0: 68a6 79bc f85b a4bc 1883 423d 4891 57bd
000001e0: 58f2 853d 3882 a3bd 4e5a 9b3d 17ba 03be
000001f0: 4c11 b4bd 7479 393d 004a a23c f232 b93d
00000200: d8b5 893d 8a4f dcbd 62f2 cf3d 7639 09bd
00000210: 74bc c7bc 061c 61bd 3c61 b7bc 61d8 f6bd
00000220: d088 233c e238 c73d b460 d3bc 6c4d cb3d
00000230: 80f9 6ebd dc98 553d 201e 513c 423b 4dbd
00000240: 4fe0 003e 20dc 2d3c 205d bc3b c87d 64bc
00000250: a030 e5bb cc24 d53d 68f5 a0bc 60c6 9e3d
00000260: 7cc8 3f3d a670 ac3d a262 c8bd bdae e7bd
00000270: b6a0 2dbd 7e9c 13bd b6ec fb3d 1d43 023e
00000280: 3c2c fcbc 2c5e 7dbd 00f8 0eba 2462 4a3d
00000290: b0ba 343d b0a1 c73c f42d c23d c0d7 603c
000002a0: a0ef d53d 88cf 003d 7007 3cbc 981f dc3d
000002b0: 008b 893b 80ce a83b d063 ccbc 524b 9b3d
000002c0: b6cc 1cbd 3044 ce3d 8628 8d3d 00af 07bb
000002d0: 3461 adbc dc33 4f3d 3117 01be 1ce6 2ebd
000002e0: 20ea 3abd 748e 81bc ae0c 7dbd f265 64bd
000002f0: 0477 7b3d 9832 60bc b43f b7bd 70cb 18bc
00000300: 3cbd 2a3d 183c 56bd 8cf3 e03d e588 b7bd
00000310: d235 e63d c88a 4b3d 1ef8 97bd cf4d fabd
00000320: e845 4e3d 8832 c5bc 94ad 1c3d 68ca 613d
00000330: 3240 b3bd b09c 783c 1068 e1bc 0611 eebd
00000340: a096 ba3c 9007 e23c 0b42 cabd faaf f83d
00000350: 58a5 8a3d 844f 963d 4c61 e6bd 6573 e4bd
00000360: a06c 643d 20b0 983d a3bf e2bd 7ee5 fd3d
00000370: dc0f e9bc d958 d6bd 9ef9 c1bd a05d f5bc
00000380: ca24 8b3d b859 b6bd a6cd c23d cb1b 043e
00000390: 7a8b f83d 8cb2 703d 7403 58bd 9e05 49bd
000003a0: 5ed7 bd3d 54de dcbc e0d3 a13c ef22 043e
000003b0: 5d69 03be 6880 f1bc b40d 51bd 2031 abbc
000003c0: 6040 ae3b 4416 e5bc 7154 003e a472 563d
000003d0: 201e a6bd b318 003e f4c4 12bd f049 983c
000003e0: 4072 453c b655 c2bd ea83 863d 26a1 a0bd
000003f0: 8b8d ebbd 58ef dd3d ec50 9e3d 1e57 5dbd

Encoder_Layer_model.attention.K_linear.bias f4 [60]
-0.08562826 -0.02185756 0.07603602 -0.082831785 -0.09953421 -0.015262067 0.066394866 -0.08774261
0.016595364 -0.054268636 0.018916175 0.019666374 0.086908355 -0.065236814 -0.11872553 0.015199035
0.07211536 -0.05692739 0.04177396 -0.117672846 0.063697636 0.06683031 -0.12046524 -0.030355789
0.05581166 0.05826734 0.03835909 -0.093192145 0.10749608 -0.112851575 -0.0026291162 -0.06873457
-0.10591294 -0.056645326 0.115266606 -0.11226675 0.08812833 0.11466448 -0.07260309 0.03923948
-0.04975587 -0.12146325 -0.11317789 -0.022356607 -0.093016535 -0.016944148 0.074471414 0.06270538
-0.12763299 0.050252512 -0.0008940846 0.044290498 0.08255716 -0.10761264 -0.066898555 0.05532512
0.021420583 -0.036519118 -0.06510177 0.019101351
00000000: df5d afbd a00e b3bc c6b8 9b3d b6a3 a9bd
00000010: 98d8 cbbd c00d 7abc 08fa 873d 66b2 b3bd
00000020: 00f3 873c ca48 5ebd 18f6 9a3c 601b a13c
00000030: 02fd b13d e19a 85bd 5f26 f3bd 6005 793c
00000040: 38b1 933d b22c 69bd 2c1b 2b3d 76fe f0bd
00000050: e873 823d 54de 883d 7bb6 f6bd b4ac f8bc
00000060: c49a 643d bca9 6e3d 6c1e 1d3d 86db bebd
00000070: e826 dc3d ba1e e7bd 404d 2cbb b6c4 8cbd
00000080: e2e8 d8bd ee04 68bd e610 ec3d 1cec e5bd
00000090: a07c b43d 36d5 ea3d eeb0 94bd 94b9 203d
000000a0: d0cc 4bbd b9c1 f8bd cfc9 e7bd 3425 b7bc
000000b0: 747f bebd 74ce 8abc 7884 983d ae6b 803d
000000c0: 39b2 02be 94d5 4d3d 0061 6aba f469 353d
000000d0: ba13 a93d 0464 dcbd 1c02 89bd 989c 623d
000000e0: 387a af3c 1295 15bd 1454 85bd 707a 9c3c

Encoder_Layer_model.attention.V_linear.weight f4 [60, 60]
-0.034882687 0.03776072 -0.05702839 0.12548657 0.016200379 -0.034449413 -0.106526576 0.12568437
-0.09676698 -0.112486094 0.050586388 -0.06658094 0.09420325 0.025826886 -0.075593054 -0.11434205
-0.08542783 0.12447943 0.0035335422 -0.07541546 0.109678596 0.04517132 0.0963929 0.088519484
0.08228733 0.06693797 0.058228776 0.052374303 0.063503385 -0.038497284 -0.031326845 -0.055711173
-0.07055202 0.10971095 0.07723819 0.0987225 0.05127649 0.09060693 0.0783619 -0.011981539
-0.12003745 0.050058514 -0.040114388 -0.08257704 0.096399665 0.11334391 0.07735476 -0.041847393
-0.05734259 0.10917801 0.076933935 -0.022444576 -0.098622255 -0.057406507 -0.05097927 -0.077751815
-0.10993639 -0.029282287 0.10231392 -0.021553814 0.053471804 0.0021285266 -0.111596055 0.103128776
0.11043702 -0.027707875 0.045959786 0.0523244 -0.082182586 0.024570033 -0.07366801 0.06387481
-0.10188258 0.0049921125 -0.042662844 -0.1105847 0.012222663 -0.033655897 -0.008940101 0.0072740167
0.10391416 -0.091211215 0.055888996 -0.07460573 0.058811948 0.04630512 0.10617451 -0.05560314
0.012930125 -0.029243909 -0.10416961 -0.10251523 0.1219074 0.0041891336 0.07607071 -0.116858125
0.10286684 0.07292616 0.06631319 0.08427416 -0.08532855 0.0072470307 -0.11236356 -0.0107329935
0.10436235 0.06601405 0.07406539 -0.0725773 -0.11444224 -0.035116307 0.097185716 0.100481614
0.12648933 0.056260586 -0.007292971 -0.12299115 -0.007002443 0.0762461 0.04614128 -0.040133275
-0.06499045 0.0729361 0.0065517128 0.008619621 -0.03702186 0.053153813 -0.033906586 0.078646615
0.025781125 -0.03859789 -0.012562752 -0.058349855 0.09613651 -0.03598337 0.10711396 -0.1263118
0.0832739 0.052310556 0.10517177 -0.046510816 -0.0907509 0.04631111 -0.10127685 0.10419272
0.014202967 0.09012592 0.09040536 -0.028853543 -0.05212962 -0.036271267 -0.06867327 0.0399597
0.026917353 -0.08302964 0.025026053 0.11978485 0.103599 0.0686907 0.015474811 0.061366558
0.067715704 -0.053834565 -0.036863975 -0.005376965 0.06633796 -0.11281729 0.022706673 0.09197527
0.039258987 -0.097819895 -0.07087651 -0.11529658 -0.10446724 -0.10383769 -0.010259047 -0.053267695
-0.12502381 0.11467315 0.030843198 -0.085013345 -0.07228245 -0.0078071356 0.08525461 -0.041177556
-0.04778914 0.08165738 -0.018445432 -0.04643365 0.0864798 -0.10377407 0.034246773 -0.11226147
0.0050026774 -0.022515275 -0.087764114 -0.068601295 0.08303937 0.10247867 0.026954308 0.05413471
0.072590694 -0.022306316 -0.007122591 0.10489705 0.07917458 -0.048962183 0.029463276 0.03921497
-0.04567965 0.07862212 -0.051349305 0.052883565 0.07277614 -0.013057567 -0.10195705 -0.10637679
-0.01625906 0.07195252 0.116153225 0.07710807 0.007948175 -0.01399596 0.014397368 -0.046163477
-0.026156932 0.07305966 -0.10535984 -0.081664726 -0.034386717 -0.08052962 -0.09627719 0.06346077
0.058132753 0.0684856 -0.09109445 0.03974077 0.068835735 0.026140973 -0.060559273 -0.057795636
0.07076049 0.0427479 0.03313522 -0.098625764 -0.11511664 0.10110684 0.008037299 0.108971566
-0.12376994 -0.060451098 -0.11948468 0.11941245 0.018998742 0.05053456 0.098721 0.007593453
00000000: 26e1 0ebd fcaa 1a3d 9a96 69bd 8d7f 003e
00000010: a8b6 843c d41a 0dbd 9b2a dabd 67b3 003e
00000020: c42d c6bd 1c5f e6bd ac33 4f3d 965b 88bd
00000030: a2ed c03d e892 d33c 88d0 9abd 2a2c eabd
00000040: c9f4 aebd 12ef fe3d 0093 673b 6c73 9abd
00000050: 2c9f e03d 9005 393d a469 c53d b449 b53d
00000060: 4286 a83d c616 893d 4c81 6e3d 7086 563d
00000070: 100e 823d 54af 1dbd 9450 00bd 6631 64bd
00000080: 947d 90bd 22b0 e03d 0e2f 9e3d 062f ca3d
00000090: 4c07 523d 2090 b93d 347c a03d 384e 44bc
000000a0: 32d6 f5bd 280a 4d3d fc4e 24bd 271e a9bd
000000b0: 306d c53d da20 e83d 2c6c 9e3d 2c68 2bbd
000000c0: 10e0 6abd b898 df3d 8a8f 9d3d b0dd b7bc
000000d0: 77fa c9bd 1623 6bbd a4cf 50bd 583c 9fbd
000000e0: 5426 e1bd 68e1 efbc f689 d13d a091 b0bc
000000f0: 4005 5b3d c07e 0b3b 798c e4bd 2e35 d33d
00000100: ce2c e23d a0fb e2bc 5440 3c3d 1c52 563d
00000110: 584f a8bd 1847 c93c 41df 96bd ccd0 823d
00000120: d0a7 d0bd e094 a33b 3cbf 2ebd 3b7a e2bd
00000130: 9041 483c c4da 09bd 8079 12bc e05a ee3b
00000140: f2d0 d43d f2cc babd dceb 643d e4ca 98bd
00000150: cce4 703d 70aa 3d3d 0672 d93d 1ec0 63bd
00000160: e0d8 533c ec90 efbc e056 d5bd 81f3 d1bd
00000170: 96aa f93d 0045 893b f6ca 9b3d 5053 efbd
00000180: daab d23d 505a 953d 36cf 873d ee97 ac3d
00000190: bcc0 aebd 8078 ed3b de1e e6bd 70d9 2fbc
000001a0: eebb d53d 6032 873d 98af 973d 68a3 94bd
000001b0: b160 eabd 1ed6 0fbd 4e09 c73d 4ec9 cd3d
000001c0: 6b86 013e 8071 663d e0f9 eebb c9e2 fbbd
000001d0: c074 e5bb ea26 9c3d a4fe 3c3d ca62 24bd
000001e0: b719 85bd 865f 953d c0af d63b 5039 0d3c
000001f0: 3ca4 17bd d0b7 593d a2e1 0abd 7a11 a13d
00000200: f032 d33c d218 1ebd 00d4 4dbc 4200 6fbd
00000210: 38e3 c43d 4c63 13bd 905e db3d e157 01be
00000220: 828b aa3d 9843 563d 4c64 d73d 2082 3ebd
00000230: 9cdb b9bd b8b0 3d3d 3d6a cfbd fe62 d53d
00000240: 90b3 683c f093 b83d 7226 b93d 445e ecbc
00000250: de85 55bd 2e91 14bd 92a4 8cbd c8ac 233d
00000260: c881 dc3c 720b aabd 7003 cd3c c251 f53d
00000270: b62b d43d b6ad 8c3d 108a 7d3c 805b 7b3d
00000280: 88ae 8a3d a281 5cbd aefe 16bd 4031 b0bb
00000290: 32dc 873d c00c e7bd 5803 ba3c 885d bc3d
000002a0: 08ce 203d cc55 c8bd b427 91bd 9d20 ecbd
000002b0: ecf2 d5bd dba8 d4bd 9015 28bc 3a2f 5abd
000002c0: 3e06 00be c2d9 ea3d e0aa fc3c 7a1b aebd
000002d0: d208 94bd 00d3 ffbb f899 ae3d cca9 28bd
000002e0: 8cbe 43bd fc3b a73d e01a 97bc 3631 3ebd
000002f0: 521c b13d 8087 d4bd 5846 0c3d 57e9 e5bd
00000300: 80ed a33b f471 b8bc acbd b3bd d67e 8cbd
00000310: 8c10 aa3d 56e0 d13d 48cf dc3c 5cbc 5d3d
00000320: 6eaa 943d bcbb b6bc a064 e9bb 44d4 d63d
00000330: 4826 a23d 928c 48bd f85c f13c e09f 203d
00000340: 961a 3bbd a204 a13d a653 52bd 709c 583d
00000350: a80b 953d 68ef 55bc dcce d0bd 13dc d9bd
00000360: b831 85bc d85b 933d bee1 ed3d d6ea 9d3d
00000370: 1039 023c 504f 65bc f0e2 6b3c ea15 3dbd
00000380: 1047 d6bc 4ea0 953d e6c6 d7bd d63f a7bd
00000390: 16d9 0cbd b7ec a4bd fa2c c5bd b8f7 813d
000003a0: 9c1c 6e3d 2e42 8c3d ba8f babd 38c7 223d
000003b0: c0f9 8c3d 9825 d63c 000d 78bd 1ebb 6cbd
000003c0: e0ea 903d 6c18 2f3d ccb8 073d 4efc c9bd
000003d0: 46c2 ebbd 1a11 cf3d e0ae 033c 7c2c df3d
000003e0: 187b fdbd 929b 77bd 62b4 f4bd 848e f43d
000003f0: 40a3 9b3c 54fd 4e3d 3c2e ca3d 80d2 f83b

Encoder_Layer_model.attention.V_linear.bias f4 [60]
-0.01398547 -0.0070374534 -0.12284351 0.06853859 0.05218804 0.032775775 0.05676374 -0.1135341
0.12827642 0.08635248 -0.038024075 0.0680083 -0.046027698 -0.040996306 -0.007848933 0.07972859
0.07094428 -0.04454851 -0.1068327 0.00153929 -0.054826476 -0.008355923 0.065578476 0.086178645
0.006817475 0.05289775 0.023674354 -0.058758058 0.076718315 -0.09052917 -0.009739883 -0.05607228
0.008733377 0.107110724 0.04085508 -0.008482136 -0.12033702 -0.09204532 -0.02678667 -0.0620389
0.025442526 -0.12731688 0.12017031 -0.039200664 0.07691957 0.09266138 0.10556696 -0.021386266
0.004474044 0.06590395 -0.09619886 -0.009175062 0.054303274 -0.0029168576 -0.09189463 0.01919353
-0.026518807 0.07919259 -0.089956276 0.010787487
00000000: 5023 65bc 709a e6bb 6195 fbbd f65d 8c3d
00000010: 20c3 553d e43f 063d 1881 683d 9184 e8bd
00000020: e55a 033e 92d9 b03d 22bf 1bbd f047 8b3d
00000030: 8a87 3cbd beeb 27bd d098 00bc be48 a33d
00000040: 3c4b 913d 8078 36bd 1acb dabd 00c2 c93a
00000050: ba91 60bd 48e7 08bc 024e 863d 6e7e b03d
00000060: 2065 df3b 50ab 583d b8f0 c13c 4aac 70bd
00000070: 7e1e 9d3d 5c67 b9bd 0894 1fbc 0cac 65bd
00000080: 7016 0f3c de5c db3d a857 273d a8f8 0abc
00000090: 4173 f6bd 4282 bcbd b86f dbbc 801c 7ebd
000000a0: d86c d03c 5b5f 02be da1b f63d e090 20bd
000000b0: 0288 9d3d 40c5 bd3d 7e33 d83d 4032 afbc
000000c0: 009b 923b a6f8 863d e803 c5bd 0053 16bc
000000d0: 1c6d 5e3d c028 3fbb 4033 bcbd c03b 9d3c
000000e0: f83d d9bc ba2f a23d ff3a b8bd 00be 303c

Encoder_Layer_model.attention.atten_linear.weight f4 [60, 60]
-0.017530814 -0.002363667 0.11683953 0.0010554641 -0.005101323 -0.122362785 -0.06233705 -0.104132175
0.008922711 -0.028116725 0.03789763 0.10481104 0.027899757 -0.09173848 -0.07851337 -0.05843761
-0.072138675 0.021443486 -0.12369896 -0.09892328 -0.022541314 -0.088357136 0.08136673 0.042489514
0.10015182 0.059334427 -0.03439632 -0.019258693 0.06050521 -0.11727576 0.031214878 -0.117904834
0.055247545 -0.041916884 0.042629436 0.049756855 0.005040571 0.016084611 -0.047268532 0.004206255
0.074464485 0.10612671 -0.036309294 0.02986607 0.03094934 0.051792562 0.04462737 0.04290214
-0.09358896 -0.02204986 -0.06431903 0.107009605 -0.049287222 0.056363314 0.03426519 0.045598567
0.030964985 -0.01168967 -0.041941024 0.12651093 0.030911744 0.0967121 0.042347685 0.12512596
0.03540148 -0.043011487 0.02154842 -0.095011935 0.0766892 -0.091679014 0.070678204 0.045256257
-0.12829149 -0.044456743 -0.02717536 -0.046196476 0.034558833 -0.06727256 0.11037195 -0.021383598
0.06377408 -0.058830805 -0.07545616 0.101917505 -0.11793701 -0.005243428 -0.066616476 -0.05234705
-0.00974147 0.037896708 -0.013700418 0.018491015 0.11650804 0.02293387 0.08283149 -0.034121737
-0.030018307 -0.10478544 -0.067232065 -0.047168806 0.02849041 -0.028657965 -0.11371684 -0.04411395
0.11387545 -0.05567932 -0.093070894 0.05916229 -0.03958787 -0.029883973 -0.10619594 -0.097653314
0.02758585 0.079515755 -0.06410515 -0.041650176 0.044444963 0.11751503 -0.02961848 -0.12523013
0.08985534 -0.114036195 -0.06536483 -0.0885669 0.059167504 0.07447657 0.120185435 0.010213032
-0.08666983 0.09016271 0.09322715 0.03874077 0.03757386 -0.09793298 -0.028887875 0.121104404
0.019876406 -0.12595268 0.123943254 0.08539441 0.08891997 0.070849344 0.058848158 0.120584026
0.050460786 -0.11948757 -0.06568286 0.041380674 -0.112156585 -0.09615797 -0.09785427 -0.08310677
0.05316423 0.08686647 -0.07294805 -0.06379048 -0.02939751 -0.045453317 -0.0352981 -0.015526056
0.12055932 -0.12591647 0.026986748 -0.05266363 -0.08424914 0.034773022 0.07500851 0.11580984
-0.067606136 -0.009825423 -0.10076609 -0.071657166 0.012144089 0.06899999 -0.025861152 0.079376325
-0.0001629144 -0.035114028 0.030094564 0.10481164 0.05276981 -0.048598386 -0.059572764 0.12263887
0.10121378 0.08997542 -0.07738326 -0.12599526 -0.09129693 0.046112567 0.122660324 -0.056612745
-0.12806566 -0.08550433 0.0490084 0.089711145 -0.025235683 0.0036019385 -0.09382579 -0.05906573
-0.08565003 0.084044084 -0.025437795 -0.05365806 -0.013986833 0.058224246 -0.071573436 -0.018290423
0.054754853 -0.015260838 0.041830584 -0.08673306 -0.0073236153 -0.06263036 0.118861765 -0.12894697
-0.06495235 -0.050971918 0.056985483 -0.057607435 -0.08139375 -0.0075287595 -0.041352734 0.12537943
0.079411715 0.10097413 -0.10816544 -0.03329785 -0.098941304 0.11649601 0.07656157 -0.10110418
-0.095424026 0.06378588 -0.06550888 0.041244313 -0.113371275 -0.103036806 -0.04395011 -0.10098757
0.07938312 -0.09859419 -0.042246163 -0.1263057 0.11845559 0.021068394 -0.078441024 -0.02827853
0.038706884 -0.04417874 0.10303472 -0.029691584 0.12083922 0.07045242 0.09108785 0.0034026802
00000000: c89c 8fbc c0e7 1abb 9049 ef3d 8057 8a3a
00000010: 0029 a7bb 5799 fabd 2255 7fbd 4043 d5bd
00000020: 9030 123c 0c55 e6bc 8c3a 1b3d 2ca7 d63d
00000030: 088e e43c 62e1 bbbd 9ecb a0bd 465c 6fbd
00000040: 71bd 93bd 40aa af3c e155 fdbd 4a98 cabd
00000050: 90a8 b8bc 96f4 b4bd 9aa3 a63d 7c09 2e3d
00000060: 661c cd3d a808 733d 28e3 0cbd 68c4 9dbc
00000070: 50d4 773d 462e f0bd 58b6 ff3c 1778 f1bd
00000080: 404b 623d 0ab1 2bbd 349c 2e3d d8cd 4b3d
00000090: 602b a53b e0c3 833c a69c 41bd a0d4 893b
000000a0: d680 983d f658 d93d 0eb9 14bd b0a9 f43c
000000b0: 7889 fd3c 7024 543d 30cb 363d 28ba 2f3d
000000c0: 92ab bfbd e8a1 b4bc b2b9 83bd da27 db3d
000000d0: 66e1 49bd 38dd 663d a859 0c3d 90c5 3a3d
000000e0: 48aa fd3c 0886 3fbc 5aca 2bbd 158c 013e
000000f0: a03a fd3c fe10 c63d c474 2d3d 0521 003e
00000100: 2401 113d d02c 30bd 5086 b03c 9e95 c2bd
00000110: 3a0f 9d3d 35c2 bbbd bcbf 903d a05e 393d
00000120: d85e 03be 4618 36bd dc9e debc 8438 3dbd
00000130: 908d 0d3d 32c6 89bd b00a e23d a82c afbc
00000140: fc9b 823d 92f8 70bd c288 9abd 20ba d03d
00000150: f688 f1bd 10d1 abbb 386e 88bd dc69 56bd
00000160: b09a 1fbc 9439 1b3d b877 60bc 787a 973c
00000170: c49b ee3d d0df bb3c 8ea3 a93d 3cc3 0bbd
00000180: f4e8 f5bc c099 d6bd f7b0 89bd 1434 41bd
00000190: b864 e93c 1cc4 eabc 60e4 e8bd d4b0 34bd
000001a0: 8837 e93d 0010 64bd f49b bebd 2854 723d
000001b0: e426 22bd 3ccf f4bc 427d d9bd 76fe c7bd
000001c0: b8fb e13c 28d9 a23d 9049 83bd 6099 2abd
000001d0: ec0b 363d b8ab f03d 74a2 f2bc 543c 00be
000001e0: 1406 b83d cf8b e9bd ffdd 85bd 9062 b5bd
000001f0: a059 723d 2c87 983d c823 f63d 9054 273c
00000200: f47f b1bd 3aa7 b83d e0ed be3d a4ae 1e3d
00000210: 0ce7 193d 1691 c8bd 44a6 ecbc 9605 f83d
00000220: d8d3 a23c bdf9 00be f6d5 fd3d 44e3 ae3d
00000230: ac1b b63d 7619 913d c40a 713d c2f4 f63d
00000240: f8af 4e3d e6b5 f4bd bc84 86bd c87e 293d
00000250: 5ab2 e5bd 78ee c4bd d267 c8bd e233 aabd
00000260: bcc2 593d 0ce7 b13d ca65 95bd 95a4 82bd
00000270: 0cd3 f0bc 422d 3abd be94 10bd 0061 7ebc
00000280: cee7 f63d 3ff0 00be 5013 dd3c d2b5 57bd
00000290: d08a acbd 286e 0e3d 109e 993d b62d ed3d
000002a0: 1675 8abd d0fa 20bc 745e cebd fec0 92bd
000002b0: 00f8 463c de4f 8d3d c4da d3bc 0e90 a23d
000002c0: 00d4 2ab9 bad3 0fbd e088 f63c 7ca7 d63d
000002d0: 2825 583d 1a0f 47bd 9202 74bd 162a fb3d
000002e0: 2c49 cf3d 0845 b83d 1d7b 9ebd e704 01be
000002f0: e3f9 babd 88e0 3c3d 5635 fb3d c4e2 67bd
00000300: a523 03be e51c afbd 08bd 483d 7aba b73d
00000310: 10bb cebc 800e 6c3b bc27 c0bd e8ee 71bd
00000320: 4869 afbd 4e1f ac3d ec62 d0bc 8ec8 5bbd
00000330: 0829 65bc 8c7c 6e3d 1895 92bd ccd5 95bc
00000340: a046 603d 9808 7abc 8c56 2b3d 1aa1 b1bd
00000350: f0fa efbb 5944 80bd cc6d f33d ad0a 04be
00000360: bd05 85bd eec7 50bd 9c69 693d c6f5 6bbd
00000370: c4b1 a6bd d0b3 f6bb 7c61 29bd 7763 003e
00000380: 9ca2 a23d 86cb ce3d d885 ddbd 5463 08bd
00000390: bda1 cabd 7695 ee3d 50cc 9c3d b50f cfbd
000003a0: ac6d c3bd 2ca2 823d 8529 86bd ccef 283d
000003b0: 332f e8bd f604 d3bd 0805 34bd 92d2 cebd
000003c0: 9e93 a23d c0eb c9bd 500a 2dbd 4856 01be
000003d0: d898 f23d a097 ac3c b0a5 a0bd 60a8 e7bc
000003e0: 1c8b 1e3d c4f4 34bd de03 d33d c43b f3bc
000003f0: 8e7a f73d 5c49 903d 448c ba3d 80ff 5e3b

Encoder_Layer_model.attention.atten_linear.bias f4 [60]
-0.0946985 0.028256983 0.013640925 0.07458636 0.12812264 -0.032888778 -0.12846215 -0.10134943
0.08757478 0.0135643035 0.0755755 -0.061034016 0.04904391 -0.010200642 -0.023385465 0.022782236
0.012920216 -0.005196199 -0.049715534 -0.057789452 -0.03564488 -0.08993296 -0.051503375 -0.0005995631
-0.059354678 0.02687183 0.07241146 0.029591009 -0.03816162 0.01172325 -0.066364676 0.10464825
0.09699531 0.11220735 -0.034707308 0.09793331 0.023699045 -0.026323944 0.08682841 -0.078198925
-0.11541329 0.11891514 0.05317439 0.07198706 -0.12051629 0.024129882 0.055757225 -0.037889406
-0.082723156 0.102549344 0.031986058 0.061941415 0.124509975 -0.10058238 0.08983651 -0.0485598
0.048149645 0.083881274 0.09393464 0.042720437
00000000: 4af1 c1bd 307b e73c 307e 5f3c bcc0 983d
00000010: 9532 033e 62b6 06bd 958b 03be 4a90 cfbd
00000020: 685a b33d d03c 5e3c 54c7 9a3d cefe 79bd
00000030: 44e2 483d 9820 27bc e092 bfbc d0a1 ba3c
00000040: 50af 533c e044 aabb 84a2 4bbd a2b4 6cbd
00000050: 5e00 12bd c62e b8bd 34f5 52bd 002c 1dba
00000060: e41d 73bd 5022 dc3c 764c 943d d868 f23c
00000070: 5c4f 1cbd e012 403c 34ea 87bd d251 d63d
00000080: 7aa5 c63d f8cc e53d 4029 0ebd 4291 c83d
00000090: 8024 c23c 50a5 d7bc 18d3 b13d c226 a0bd
000000a0: ce5d ecbd c889 f33d 64cd 593d f46d 933d
000000b0: 3fd1 f6bd 08ac c53c b061 643d ec31 1bbd
000000c0: c26a a9bd 6405 d23d d003 033d 48b6 7d3d
000000d0: 16ff fe3d 23fe cdbd 34fc b73d a4e6 46bd
000000e0: 9038 453d f2c9 ab3d ce60 c03d a0fb 2e3d
